…
2024-04-21 16:11:03,342 INFO: Cache calendar for VideoTestDataset...
2024-04-21 16:11:03,827 INFO: Cache city for VideoTestDataset...
2024-04-21 16:11:04,208 INFO: Cache foliage for VideoTestDataset...
2024-04-21 16:11:04,659 INFO: Cache walk for VideoTestDataset...
2024-04-21 16:11:05,094 INFO: Dataset [VideoRecurrentTestDataset] - Vid4 is built.
2024-04-21 16:11:05,094 INFO: Number of val images/folders in Vid4: 4
2024-04-21 16:11:05,165 INFO: Network [BasicRecurrentHAT] is created.
2024-04-21 16:11:07,087 INFO: Network: BasicRecurrentHAT, with parameters: 6,129,967
2024-04-21 16:11:07,088 INFO: BasicRecurrentHAT(
  (conv_before_upsample): Conv2d(64, 64, kernel_size=(3, 3), stride=(1, 1), padding=(1, 1))
  (spynet): SpyNet(
    (basic_module): ModuleList(
      (0): BasicModule(
        (basic_module): Sequential(
          (0): Conv2d(8, 32, kernel_size=(7, 7), stride=(1, 1), padding=(3, 3))
          (1): ReLU()
          (2): Conv2d(32, 64, kernel_size=(7, 7), stride=(1, 1), padding=(3, 3))
          (3): ReLU()
          (4): Conv2d(64, 32, kernel_size=(7, 7), stride=(1, 1), padding=(3, 3))
          (5): ReLU()
          (6): Conv2d(32, 16, kernel_size=(7, 7), stride=(1, 1), padding=(3, 3))
          (7): ReLU()
          (8): Conv2d(16, 2, kernel_size=(7, 7), stride=(1, 1), padding=(3, 3))
        )
      )
      (1): BasicModule(
        (basic_module): Sequential(
          (0): Conv2d(8, 32, kernel_size=(7, 7), stride=(1, 1), padding=(3, 3))
          (1): ReLU()
          (2): Conv2d(32, 64, kernel_size=(7, 7), stride=(1, 1), padding=(3, 3))
          (3): ReLU()
          (4): Conv2d(64, 32, kernel_size=(7, 7), stride=(1, 1), padding=(3, 3))
          (5): ReLU()
          (6): Conv2d(32, 16, kernel_size=(7, 7), stride=(1, 1), padding=(3, 3))
          (7): ReLU()
          (8): Conv2d(16, 2, kernel_size=(7, 7), stride=(1, 1), padding=(3, 3))
        )
      )
      (2): BasicModule(
        (basic_module): Sequential(
          (0): Conv2d(8, 32, kernel_size=(7, 7), stride=(1, 1), padding=(3, 3))
          (1): ReLU()
          (2): Conv2d(32, 64, kernel_size=(7, 7), stride=(1, 1), padding=(3, 3))
          (3): ReLU()
          (4): Conv2d(64, 32, kernel_size=(7, 7), stride=(1, 1), padding=(3, 3))
          (5): ReLU()
          (6): Conv2d(32, 16, kernel_size=(7, 7), stride=(1, 1), padding=(3, 3))
          (7): ReLU()
          (8): Conv2d(16, 2, kernel_size=(7, 7), stride=(1, 1), padding=(3, 3))
        )
      )
      (3): BasicModule(
        (basic_module): Sequential(
          (0): Conv2d(8, 32, kernel_size=(7, 7), stride=(1, 1), padding=(3, 3))
          (1): ReLU()
          (2): Conv2d(32, 64, kernel_size=(7, 7), stride=(1, 1), padding=(3, 3))
          (3): ReLU()
          (4): Conv2d(64, 32, kernel_size=(7, 7), stride=(1, 1), padding=(3, 3))
          (5): ReLU()
          (6): Conv2d(32, 16, kernel_size=(7, 7), stride=(1, 1), padding=(3, 3))
          (7): ReLU()
          (8): Conv2d(16, 2, kernel_size=(7, 7), stride=(1, 1), padding=(3, 3))
        )
      )
      (4): BasicModule(
        (basic_module): Sequential(
          (0): Conv2d(8, 32, kernel_size=(7, 7), stride=(1, 1), padding=(3, 3))
          (1): ReLU()
          (2): Conv2d(32, 64, kernel_size=(7, 7), stride=(1, 1), padding=(3, 3))
          (3): ReLU()
          (4): Conv2d(64, 32, kernel_size=(7, 7), stride=(1, 1), padding=(3, 3))
          (5): ReLU()
          (6): Conv2d(32, 16, kernel_size=(7, 7), stride=(1, 1), padding=(3, 3))
          (7): ReLU()
          (8): Conv2d(16, 2, kernel_size=(7, 7), stride=(1, 1), padding=(3, 3))
        )
      )
      (5): BasicModule(
        (basic_module): Sequential(
          (0): Conv2d(8, 32, kernel_size=(7, 7), stride=(1, 1), padding=(3, 3))
          (1): ReLU()
          (2): Conv2d(32, 64, kernel_size=(7, 7), stride=(1, 1), padding=(3, 3))
          (3): ReLU()
          (4): Conv2d(64, 32, kernel_size=(7, 7), stride=(1, 1), padding=(3, 3))
          (5): ReLU()
          (6): Conv2d(32, 16, kernel_size=(7, 7), stride=(1, 1), padding=(3, 3))
          (7): ReLU()
          (8): Conv2d(16, 2, kernel_size=(7, 7), stride=(1, 1), padding=(3, 3))
        )
      )
    )
  )
  (conv_first): Conv2d(3, 64, kernel_size=(3, 3), stride=(1, 1), padding=(1, 1))
  (patch_align): ModuleDict(
    (backward_1): MFHAT(
      (conv_first): Conv2d(3, 64, kernel_size=(3, 3), stride=(1, 1), padding=(1, 1))
      (conv_first_feat): Conv2d(64, 64, kernel_size=(3, 3), stride=(1, 1), padding=(1, 1))
      (patch_embed): PatchEmbed(
        (norm): LayerNorm((64,), eps=1e-05, elementwise_affine=True)
      )
      (patch_unembed): PatchUnEmbed()
      (pos_drop): Dropout(p=0.0, inplace=False)
      (layers): ModuleList(
        (0): RHAG(
          (residual_group): AttentionBlocks(
            dim=64, input_resolution=(64, 64), depth=4
            (blocks): ModuleList(
              (0): HAB(
                dim=64, input_resolution=(64, 64), num_heads=4, window_size=[3, 8, 8], shift_size=(0, 0, 0), mlp_ratio=2.0
                (norm1): LayerNorm((64,), eps=1e-05, elementwise_affine=True)
                (attn): WindowAttention(
                  dim=64, window_size=[3, 8, 8], num_heads=4
                  (qkv): Linear(in_features=64, out_features=192, bias=True)
                  (attn_drop): Dropout(p=0.0, inplace=False)
                  (proj): Linear(in_features=64, out_features=64, bias=True)
                  (proj_drop): Dropout(p=0.0, inplace=False)
                  (softmax): Softmax(dim=-1)
                )
                (conv_block): CAB3D(
                  (cab): Sequential(
                    (0): Conv3d(64, 21, kernel_size=(1, 3, 3), stride=(1, 1, 1), padding=(0, 1, 1))
                    (1): GELU()
                    (2): Conv3d(21, 64, kernel_size=(1, 3, 3), stride=(1, 1, 1), padding=(0, 1, 1))
                    (3): ChannelAttention3D(
                      (attention): Sequential(
                        (0): AdaptiveAvgPool3d(output_size=(1, 1, 1))
                        (1): Conv3d(64, 2, kernel_size=(1, 1, 1), stride=(1, 1, 1))
                        (2): ReLU(inplace=True)
                        (3): Conv3d(2, 64, kernel_size=(1, 1, 1), stride=(1, 1, 1))
                        (4): Sigmoid()
                      )
                    )
                  )
                )
                (drop_path): Identity()
                (norm2): LayerNorm((64,), eps=1e-05, elementwise_affine=True)
                (mlp): Mlp(
                  (fc1): Linear(in_features=64, out_features=128, bias=True)
                  (act): GELU()
                  (fc2): Linear(in_features=128, out_features=64, bias=True)
                  (drop): Dropout(p=0.0, inplace=False)
                )
              )
              (1): HAB(
                dim=64, input_resolution=(64, 64), num_heads=4, window_size=[3, 8, 8], shift_size=(3, 4, 4), mlp_ratio=2.0
                (norm1): LayerNorm((64,), eps=1e-05, elementwise_affine=True)
                (attn): WindowAttention(
                  dim=64, window_size=[3, 8, 8], num_heads=4
                  (qkv): Linear(in_features=64, out_features=192, bias=True)
                  (attn_drop): Dropout(p=0.0, inplace=False)
                  (proj): Linear(in_features=64, out_features=64, bias=True)
                  (proj_drop): Dropout(p=0.0, inplace=False)
                  (softmax): Softmax(dim=-1)
                )
                (conv_block): CAB3D(
                  (cab): Sequential(
                    (0): Conv3d(64, 21, kernel_size=(1, 3, 3), stride=(1, 1, 1), padding=(0, 1, 1))
                    (1): GELU()
                    (2): Conv3d(21, 64, kernel_size=(1, 3, 3), stride=(1, 1, 1), padding=(0, 1, 1))
                    (3): ChannelAttention3D(
                      (attention): Sequential(
                        (0): AdaptiveAvgPool3d(output_size=(1, 1, 1))
                        (1): Conv3d(64, 2, kernel_size=(1, 1, 1), stride=(1, 1, 1))
                        (2): ReLU(inplace=True)
                        (3): Conv3d(2, 64, kernel_size=(1, 1, 1), stride=(1, 1, 1))
                        (4): Sigmoid()
                      )
                    )
                  )
                )
                (drop_path): DropPath()
                (norm2): LayerNorm((64,), eps=1e-05, elementwise_affine=True)
                (mlp): Mlp(
                  (fc1): Linear(in_features=64, out_features=128, bias=True)
                  (act): GELU()
                  (fc2): Linear(in_features=128, out_features=64, bias=True)
                  (drop): Dropout(p=0.0, inplace=False)
                )
              )
              (2): HAB(
                dim=64, input_resolution=(64, 64), num_heads=4, window_size=[3, 8, 8], shift_size=(0, 0, 0), mlp_ratio=2.0
                (norm1): LayerNorm((64,), eps=1e-05, elementwise_affine=True)
                (attn): WindowAttention(
                  dim=64, window_size=[3, 8, 8], num_heads=4
                  (qkv): Linear(in_features=64, out_features=192, bias=True)
                  (attn_drop): Dropout(p=0.0, inplace=False)
                  (proj): Linear(in_features=64, out_features=64, bias=True)
                  (proj_drop): Dropout(p=0.0, inplace=False)
                  (softmax): Softmax(dim=-1)
                )
                (conv_block): CAB3D(
                  (cab): Sequential(
                    (0): Conv3d(64, 21, kernel_size=(1, 3, 3), stride=(1, 1, 1), padding=(0, 1, 1))
                    (1): GELU()
                    (2): Conv3d(21, 64, kernel_size=(1, 3, 3), stride=(1, 1, 1), padding=(0, 1, 1))
                    (3): ChannelAttention3D(
                      (attention): Sequential(
                        (0): AdaptiveAvgPool3d(output_size=(1, 1, 1))
                        (1): Conv3d(64, 2, kernel_size=(1, 1, 1), stride=(1, 1, 1))
                        (2): ReLU(inplace=True)
                        (3): Conv3d(2, 64, kernel_size=(1, 1, 1), stride=(1, 1, 1))
                        (4): Sigmoid()
                      )
                    )
                  )
                )
                (drop_path): DropPath()
                (norm2): LayerNorm((64,), eps=1e-05, elementwise_affine=True)
                (mlp): Mlp(
                  (fc1): Linear(in_features=64, out_features=128, bias=True)
                  (act): GELU()
                  (fc2): Linear(in_features=128, out_features=64, bias=True)
                  (drop): Dropout(p=0.0, inplace=False)
                )
              )
              (3): HAB(
                dim=64, input_resolution=(64, 64), num_heads=4, window_size=[3, 8, 8], shift_size=(3, 4, 4), mlp_ratio=2.0
                (norm1): LayerNorm((64,), eps=1e-05, elementwise_affine=True)
                (attn): WindowAttention(
                  dim=64, window_size=[3, 8, 8], num_heads=4
                  (qkv): Linear(in_features=64, out_features=192, bias=True)
                  (attn_drop): Dropout(p=0.0, inplace=False)
                  (proj): Linear(in_features=64, out_features=64, bias=True)
                  (proj_drop): Dropout(p=0.0, inplace=False)
                  (softmax): Softmax(dim=-1)
                )
                (conv_block): CAB3D(
                  (cab): Sequential(
                    (0): Conv3d(64, 21, kernel_size=(1, 3, 3), stride=(1, 1, 1), padding=(0, 1, 1))
                    (1): GELU()
                    (2): Conv3d(21, 64, kernel_size=(1, 3, 3), stride=(1, 1, 1), padding=(0, 1, 1))
                    (3): ChannelAttention3D(
                      (attention): Sequential(
                        (0): AdaptiveAvgPool3d(output_size=(1, 1, 1))
                        (1): Conv3d(64, 2, kernel_size=(1, 1, 1), stride=(1, 1, 1))
                        (2): ReLU(inplace=True)
                        (3): Conv3d(2, 64, kernel_size=(1, 1, 1), stride=(1, 1, 1))
                        (4): Sigmoid()
                      )
                    )
                  )
                )
                (drop_path): DropPath()
                (norm2): LayerNorm((64,), eps=1e-05, elementwise_affine=True)
                (mlp): Mlp(
                  (fc1): Linear(in_features=64, out_features=128, bias=True)
                  (act): GELU()
                  (fc2): Linear(in_features=128, out_features=64, bias=True)
                  (drop): Dropout(p=0.0, inplace=False)
                )
              )
            )
            (overlap_attn): OCAB(
              (norm1): LayerNorm((64,), eps=1e-05, elementwise_affine=True)
              (qkv): Linear(in_features=64, out_features=192, bias=True)
              (kv_partition): Overlapping_window_partition()
              (softmax): Softmax(dim=-1)
              (attn_drop): Dropout(p=0.0, inplace=False)
              (proj): Linear(in_features=64, out_features=64, bias=True)
              (proj_drop): Dropout(p=0.0, inplace=False)
              (drop_path): Identity()
              (norm2): LayerNorm((64,), eps=1e-05, elementwise_affine=True)
              (mlp): Mlp(
                (fc1): Linear(in_features=64, out_features=128, bias=True)
                (act): GELU()
                (fc2): Linear(in_features=128, out_features=64, bias=True)
                (drop): Dropout(p=0.0, inplace=False)
              )
            )
          )
          (conv): Conv2d(64, 64, kernel_size=(3, 3), stride=(1, 1), padding=(1, 1))
          (patch_embed): PatchEmbed()
          (patch_unembed): PatchUnEmbed()
        )
        (1): RHAG(
          (residual_group): AttentionBlocks(
            dim=64, input_resolution=(64, 64), depth=4
            (blocks): ModuleList(
              (0): HAB(
                dim=64, input_resolution=(64, 64), num_heads=4, window_size=[3, 8, 8], shift_size=(0, 0, 0), mlp_ratio=2.0
                (norm1): LayerNorm((64,), eps=1e-05, elementwise_affine=True)
                (attn): WindowAttention(
                  dim=64, window_size=[3, 8, 8], num_heads=4
                  (qkv): Linear(in_features=64, out_features=192, bias=True)
                  (attn_drop): Dropout(p=0.0, inplace=False)
                  (proj): Linear(in_features=64, out_features=64, bias=True)
                  (proj_drop): Dropout(p=0.0, inplace=False)
                  (softmax): Softmax(dim=-1)
                )
                (conv_block): CAB3D(
                  (cab): Sequential(
                    (0): Conv3d(64, 21, kernel_size=(1, 3, 3), stride=(1, 1, 1), padding=(0, 1, 1))
                    (1): GELU()
                    (2): Conv3d(21, 64, kernel_size=(1, 3, 3), stride=(1, 1, 1), padding=(0, 1, 1))
                    (3): ChannelAttention3D(
                      (attention): Sequential(
                        (0): AdaptiveAvgPool3d(output_size=(1, 1, 1))
                        (1): Conv3d(64, 2, kernel_size=(1, 1, 1), stride=(1, 1, 1))
                        (2): ReLU(inplace=True)
                        (3): Conv3d(2, 64, kernel_size=(1, 1, 1), stride=(1, 1, 1))
                        (4): Sigmoid()
                      )
                    )
                  )
                )
                (drop_path): DropPath()
                (norm2): LayerNorm((64,), eps=1e-05, elementwise_affine=True)
                (mlp): Mlp(
                  (fc1): Linear(in_features=64, out_features=128, bias=True)
                  (act): GELU()
                  (fc2): Linear(in_features=128, out_features=64, bias=True)
                  (drop): Dropout(p=0.0, inplace=False)
                )
              )
              (1): HAB(
                dim=64, input_resolution=(64, 64), num_heads=4, window_size=[3, 8, 8], shift_size=(3, 4, 4), mlp_ratio=2.0
                (norm1): LayerNorm((64,), eps=1e-05, elementwise_affine=True)
                (attn): WindowAttention(
                  dim=64, window_size=[3, 8, 8], num_heads=4
                  (qkv): Linear(in_features=64, out_features=192, bias=True)
                  (attn_drop): Dropout(p=0.0, inplace=False)
                  (proj): Linear(in_features=64, out_features=64, bias=True)
                  (proj_drop): Dropout(p=0.0, inplace=False)
                  (softmax): Softmax(dim=-1)
                )
                (conv_block): CAB3D(
                  (cab): Sequential(
                    (0): Conv3d(64, 21, kernel_size=(1, 3, 3), stride=(1, 1, 1), padding=(0, 1, 1))
                    (1): GELU()
                    (2): Conv3d(21, 64, kernel_size=(1, 3, 3), stride=(1, 1, 1), padding=(0, 1, 1))
                    (3): ChannelAttention3D(
                      (attention): Sequential(
                        (0): AdaptiveAvgPool3d(output_size=(1, 1, 1))
                        (1): Conv3d(64, 2, kernel_size=(1, 1, 1), stride=(1, 1, 1))
                        (2): ReLU(inplace=True)
                        (3): Conv3d(2, 64, kernel_size=(1, 1, 1), stride=(1, 1, 1))
                        (4): Sigmoid()
                      )
                    )
                  )
                )
                (drop_path): DropPath()
                (norm2): LayerNorm((64,), eps=1e-05, elementwise_affine=True)
                (mlp): Mlp(
                  (fc1): Linear(in_features=64, out_features=128, bias=True)
                  (act): GELU()
                  (fc2): Linear(in_features=128, out_features=64, bias=True)
                  (drop): Dropout(p=0.0, inplace=False)
                )
              )
              (2): HAB(
                dim=64, input_resolution=(64, 64), num_heads=4, window_size=[3, 8, 8], shift_size=(0, 0, 0), mlp_ratio=2.0
                (norm1): LayerNorm((64,), eps=1e-05, elementwise_affine=True)
                (attn): WindowAttention(
                  dim=64, window_size=[3, 8, 8], num_heads=4
                  (qkv): Linear(in_features=64, out_features=192, bias=True)
                  (attn_drop): Dropout(p=0.0, inplace=False)
                  (proj): Linear(in_features=64, out_features=64, bias=True)
                  (proj_drop): Dropout(p=0.0, inplace=False)
                  (softmax): Softmax(dim=-1)
                )
                (conv_block): CAB3D(
                  (cab): Sequential(
                    (0): Conv3d(64, 21, kernel_size=(1, 3, 3), stride=(1, 1, 1), padding=(0, 1, 1))
                    (1): GELU()
                    (2): Conv3d(21, 64, kernel_size=(1, 3, 3), stride=(1, 1, 1), padding=(0, 1, 1))
                    (3): ChannelAttention3D(
                      (attention): Sequential(
                        (0): AdaptiveAvgPool3d(output_size=(1, 1, 1))
                        (1): Conv3d(64, 2, kernel_size=(1, 1, 1), stride=(1, 1, 1))
                        (2): ReLU(inplace=True)
                        (3): Conv3d(2, 64, kernel_size=(1, 1, 1), stride=(1, 1, 1))
                        (4): Sigmoid()
                      )
                    )
                  )
                )
                (drop_path): DropPath()
                (norm2): LayerNorm((64,), eps=1e-05, elementwise_affine=True)
                (mlp): Mlp(
                  (fc1): Linear(in_features=64, out_features=128, bias=True)
                  (act): GELU()
                  (fc2): Linear(in_features=128, out_features=64, bias=True)
                  (drop): Dropout(p=0.0, inplace=False)
                )
              )
              (3): HAB(
                dim=64, input_resolution=(64, 64), num_heads=4, window_size=[3, 8, 8], shift_size=(3, 4, 4), mlp_ratio=2.0
                (norm1): LayerNorm((64,), eps=1e-05, elementwise_affine=True)
                (attn): WindowAttention(
                  dim=64, window_size=[3, 8, 8], num_heads=4
                  (qkv): Linear(in_features=64, out_features=192, bias=True)
                  (attn_drop): Dropout(p=0.0, inplace=False)
                  (proj): Linear(in_features=64, out_features=64, bias=True)
                  (proj_drop): Dropout(p=0.0, inplace=False)
                  (softmax): Softmax(dim=-1)
                )
                (conv_block): CAB3D(
                  (cab): Sequential(
                    (0): Conv3d(64, 21, kernel_size=(1, 3, 3), stride=(1, 1, 1), padding=(0, 1, 1))
                    (1): GELU()
                    (2): Conv3d(21, 64, kernel_size=(1, 3, 3), stride=(1, 1, 1), padding=(0, 1, 1))
                    (3): ChannelAttention3D(
                      (attention): Sequential(
                        (0): AdaptiveAvgPool3d(output_size=(1, 1, 1))
                        (1): Conv3d(64, 2, kernel_size=(1, 1, 1), stride=(1, 1, 1))
                        (2): ReLU(inplace=True)
                        (3): Conv3d(2, 64, kernel_size=(1, 1, 1), stride=(1, 1, 1))
                        (4): Sigmoid()
                      )
                    )
                  )
                )
                (drop_path): DropPath()
                (norm2): LayerNorm((64,), eps=1e-05, elementwise_affine=True)
                (mlp): Mlp(
                  (fc1): Linear(in_features=64, out_features=128, bias=True)
                  (act): GELU()
                  (fc2): Linear(in_features=128, out_features=64, bias=True)
                  (drop): Dropout(p=0.0, inplace=False)
                )
              )
            )
            (overlap_attn): OCAB(
              (norm1): LayerNorm((64,), eps=1e-05, elementwise_affine=True)
              (qkv): Linear(in_features=64, out_features=192, bias=True)
              (kv_partition): Overlapping_window_partition()
              (softmax): Softmax(dim=-1)
              (attn_drop): Dropout(p=0.0, inplace=False)
              (proj): Linear(in_features=64, out_features=64, bias=True)
              (proj_drop): Dropout(p=0.0, inplace=False)
              (drop_path): Identity()
              (norm2): LayerNorm((64,), eps=1e-05, elementwise_affine=True)
              (mlp): Mlp(
                (fc1): Linear(in_features=64, out_features=128, bias=True)
                (act): GELU()
                (fc2): Linear(in_features=128, out_features=64, bias=True)
                (drop): Dropout(p=0.0, inplace=False)
              )
            )
          )
          (conv): Conv2d(64, 64, kernel_size=(3, 3), stride=(1, 1), padding=(1, 1))
          (patch_embed): PatchEmbed()
          (patch_unembed): PatchUnEmbed()
        )
        (2): RHAG(
          (residual_group): AttentionBlocks(
            dim=64, input_resolution=(64, 64), depth=4
            (blocks): ModuleList(
              (0): HAB(
                dim=64, input_resolution=(64, 64), num_heads=4, window_size=[3, 8, 8], shift_size=(0, 0, 0), mlp_ratio=2.0
                (norm1): LayerNorm((64,), eps=1e-05, elementwise_affine=True)
                (attn): WindowAttention(
                  dim=64, window_size=[3, 8, 8], num_heads=4
                  (qkv): Linear(in_features=64, out_features=192, bias=True)
                  (attn_drop): Dropout(p=0.0, inplace=False)
                  (proj): Linear(in_features=64, out_features=64, bias=True)
                  (proj_drop): Dropout(p=0.0, inplace=False)
                  (softmax): Softmax(dim=-1)
                )
                (conv_block): CAB3D(
                  (cab): Sequential(
                    (0): Conv3d(64, 21, kernel_size=(1, 3, 3), stride=(1, 1, 1), padding=(0, 1, 1))
                    (1): GELU()
                    (2): Conv3d(21, 64, kernel_size=(1, 3, 3), stride=(1, 1, 1), padding=(0, 1, 1))
                    (3): ChannelAttention3D(
                      (attention): Sequential(
                        (0): AdaptiveAvgPool3d(output_size=(1, 1, 1))
                        (1): Conv3d(64, 2, kernel_size=(1, 1, 1), stride=(1, 1, 1))
                        (2): ReLU(inplace=True)
                        (3): Conv3d(2, 64, kernel_size=(1, 1, 1), stride=(1, 1, 1))
                        (4): Sigmoid()
                      )
                    )
                  )
                )
                (drop_path): DropPath()
                (norm2): LayerNorm((64,), eps=1e-05, elementwise_affine=True)
                (mlp): Mlp(
                  (fc1): Linear(in_features=64, out_features=128, bias=True)
                  (act): GELU()
                  (fc2): Linear(in_features=128, out_features=64, bias=True)
                  (drop): Dropout(p=0.0, inplace=False)
                )
              )
              (1): HAB(
                dim=64, input_resolution=(64, 64), num_heads=4, window_size=[3, 8, 8], shift_size=(3, 4, 4), mlp_ratio=2.0
                (norm1): LayerNorm((64,), eps=1e-05, elementwise_affine=True)
                (attn): WindowAttention(
                  dim=64, window_size=[3, 8, 8], num_heads=4
                  (qkv): Linear(in_features=64, out_features=192, bias=True)
                  (attn_drop): Dropout(p=0.0, inplace=False)
                  (proj): Linear(in_features=64, out_features=64, bias=True)
                  (proj_drop): Dropout(p=0.0, inplace=False)
                  (softmax): Softmax(dim=-1)
                )
                (conv_block): CAB3D(
                  (cab): Sequential(
                    (0): Conv3d(64, 21, kernel_size=(1, 3, 3), stride=(1, 1, 1), padding=(0, 1, 1))
                    (1): GELU()
                    (2): Conv3d(21, 64, kernel_size=(1, 3, 3), stride=(1, 1, 1), padding=(0, 1, 1))
                    (3): ChannelAttention3D(
                      (attention): Sequential(
                        (0): AdaptiveAvgPool3d(output_size=(1, 1, 1))
                        (1): Conv3d(64, 2, kernel_size=(1, 1, 1), stride=(1, 1, 1))
                        (2): ReLU(inplace=True)
                        (3): Conv3d(2, 64, kernel_size=(1, 1, 1), stride=(1, 1, 1))
                        (4): Sigmoid()
                      )
                    )
                  )
                )
                (drop_path): DropPath()
                (norm2): LayerNorm((64,), eps=1e-05, elementwise_affine=True)
                (mlp): Mlp(
                  (fc1): Linear(in_features=64, out_features=128, bias=True)
                  (act): GELU()
                  (fc2): Linear(in_features=128, out_features=64, bias=True)
                  (drop): Dropout(p=0.0, inplace=False)
                )
              )
              (2): HAB(
                dim=64, input_resolution=(64, 64), num_heads=4, window_size=[3, 8, 8], shift_size=(0, 0, 0), mlp_ratio=2.0
                (norm1): LayerNorm((64,), eps=1e-05, elementwise_affine=True)
                (attn): WindowAttention(
                  dim=64, window_size=[3, 8, 8], num_heads=4
                  (qkv): Linear(in_features=64, out_features=192, bias=True)
                  (attn_drop): Dropout(p=0.0, inplace=False)
                  (proj): Linear(in_features=64, out_features=64, bias=True)
                  (proj_drop): Dropout(p=0.0, inplace=False)
                  (softmax): Softmax(dim=-1)
                )
                (conv_block): CAB3D(
                  (cab): Sequential(
                    (0): Conv3d(64, 21, kernel_size=(1, 3, 3), stride=(1, 1, 1), padding=(0, 1, 1))
                    (1): GELU()
                    (2): Conv3d(21, 64, kernel_size=(1, 3, 3), stride=(1, 1, 1), padding=(0, 1, 1))
                    (3): ChannelAttention3D(
                      (attention): Sequential(
                        (0): AdaptiveAvgPool3d(output_size=(1, 1, 1))
                        (1): Conv3d(64, 2, kernel_size=(1, 1, 1), stride=(1, 1, 1))
                        (2): ReLU(inplace=True)
                        (3): Conv3d(2, 64, kernel_size=(1, 1, 1), stride=(1, 1, 1))
                        (4): Sigmoid()
                      )
                    )
                  )
                )
                (drop_path): DropPath()
                (norm2): LayerNorm((64,), eps=1e-05, elementwise_affine=True)
                (mlp): Mlp(
                  (fc1): Linear(in_features=64, out_features=128, bias=True)
                  (act): GELU()
                  (fc2): Linear(in_features=128, out_features=64, bias=True)
                  (drop): Dropout(p=0.0, inplace=False)
                )
              )
              (3): HAB(
                dim=64, input_resolution=(64, 64), num_heads=4, window_size=[3, 8, 8], shift_size=(3, 4, 4), mlp_ratio=2.0
                (norm1): LayerNorm((64,), eps=1e-05, elementwise_affine=True)
                (attn): WindowAttention(
                  dim=64, window_size=[3, 8, 8], num_heads=4
                  (qkv): Linear(in_features=64, out_features=192, bias=True)
                  (attn_drop): Dropout(p=0.0, inplace=False)
                  (proj): Linear(in_features=64, out_features=64, bias=True)
                  (proj_drop): Dropout(p=0.0, inplace=False)
                  (softmax): Softmax(dim=-1)
                )
                (conv_block): CAB3D(
                  (cab): Sequential(
                    (0): Conv3d(64, 21, kernel_size=(1, 3, 3), stride=(1, 1, 1), padding=(0, 1, 1))
                    (1): GELU()
                    (2): Conv3d(21, 64, kernel_size=(1, 3, 3), stride=(1, 1, 1), padding=(0, 1, 1))
                    (3): ChannelAttention3D(
                      (attention): Sequential(
                        (0): AdaptiveAvgPool3d(output_size=(1, 1, 1))
                        (1): Conv3d(64, 2, kernel_size=(1, 1, 1), stride=(1, 1, 1))
                        (2): ReLU(inplace=True)
                        (3): Conv3d(2, 64, kernel_size=(1, 1, 1), stride=(1, 1, 1))
                        (4): Sigmoid()
                      )
                    )
                  )
                )
                (drop_path): DropPath()
                (norm2): LayerNorm((64,), eps=1e-05, elementwise_affine=True)
                (mlp): Mlp(
                  (fc1): Linear(in_features=64, out_features=128, bias=True)
                  (act): GELU()
                  (fc2): Linear(in_features=128, out_features=64, bias=True)
                  (drop): Dropout(p=0.0, inplace=False)
                )
              )
            )
            (overlap_attn): OCAB(
              (norm1): LayerNorm((64,), eps=1e-05, elementwise_affine=True)
              (qkv): Linear(in_features=64, out_features=192, bias=True)
              (kv_partition): Overlapping_window_partition()
              (softmax): Softmax(dim=-1)
              (attn_drop): Dropout(p=0.0, inplace=False)
              (proj): Linear(in_features=64, out_features=64, bias=True)
              (proj_drop): Dropout(p=0.0, inplace=False)
              (drop_path): Identity()
              (norm2): LayerNorm((64,), eps=1e-05, elementwise_affine=True)
              (mlp): Mlp(
                (fc1): Linear(in_features=64, out_features=128, bias=True)
                (act): GELU()
                (fc2): Linear(in_features=128, out_features=64, bias=True)
                (drop): Dropout(p=0.0, inplace=False)
              )
            )
          )
          (conv): Conv2d(64, 64, kernel_size=(3, 3), stride=(1, 1), padding=(1, 1))
          (patch_embed): PatchEmbed()
          (patch_unembed): PatchUnEmbed()
        )
      )
      (norm): LayerNorm((64,), eps=1e-05, elementwise_affine=True)
      (conv_after_body): Conv2d(64, 64, kernel_size=(3, 3), stride=(1, 1), padding=(1, 1))
      (lrelu): LeakyReLU(negative_slope=0.1, inplace=True)
      (conv_before_upsample): Conv2d(64, 64, kernel_size=(3, 3), stride=(1, 1), padding=(1, 1))
    )
    (forward_1): MFHAT(
      (conv_first): Conv2d(3, 64, kernel_size=(3, 3), stride=(1, 1), padding=(1, 1))
      (conv_first_feat): Conv2d(64, 64, kernel_size=(3, 3), stride=(1, 1), padding=(1, 1))
      (patch_embed): PatchEmbed(
        (norm): LayerNorm((64,), eps=1e-05, elementwise_affine=True)
      )
      (patch_unembed): PatchUnEmbed()
      (pos_drop): Dropout(p=0.0, inplace=False)
      (layers): ModuleList(
        (0): RHAG(
          (residual_group): AttentionBlocks(
            dim=64, input_resolution=(64, 64), depth=4
            (blocks): ModuleList(
              (0): HAB(
                dim=64, input_resolution=(64, 64), num_heads=4, window_size=[3, 8, 8], shift_size=(0, 0, 0), mlp_ratio=2.0
                (norm1): LayerNorm((64,), eps=1e-05, elementwise_affine=True)
                (attn): WindowAttention(
                  dim=64, window_size=[3, 8, 8], num_heads=4
                  (qkv): Linear(in_features=64, out_features=192, bias=True)
                  (attn_drop): Dropout(p=0.0, inplace=False)
                  (proj): Linear(in_features=64, out_features=64, bias=True)
                  (proj_drop): Dropout(p=0.0, inplace=False)
                  (softmax): Softmax(dim=-1)
                )
                (conv_block): CAB3D(
                  (cab): Sequential(
                    (0): Conv3d(64, 21, kernel_size=(1, 3, 3), stride=(1, 1, 1), padding=(0, 1, 1))
                    (1): GELU()
                    (2): Conv3d(21, 64, kernel_size=(1, 3, 3), stride=(1, 1, 1), padding=(0, 1, 1))
                    (3): ChannelAttention3D(
                      (attention): Sequential(
                        (0): AdaptiveAvgPool3d(output_size=(1, 1, 1))
                        (1): Conv3d(64, 2, kernel_size=(1, 1, 1), stride=(1, 1, 1))
                        (2): ReLU(inplace=True)
                        (3): Conv3d(2, 64, kernel_size=(1, 1, 1), stride=(1, 1, 1))
                        (4): Sigmoid()
                      )
                    )
                  )
                )
                (drop_path): Identity()
                (norm2): LayerNorm((64,), eps=1e-05, elementwise_affine=True)
                (mlp): Mlp(
                  (fc1): Linear(in_features=64, out_features=128, bias=True)
                  (act): GELU()
                  (fc2): Linear(in_features=128, out_features=64, bias=True)
                  (drop): Dropout(p=0.0, inplace=False)
                )
              )
              (1): HAB(
                dim=64, input_resolution=(64, 64), num_heads=4, window_size=[3, 8, 8], shift_size=(3, 4, 4), mlp_ratio=2.0
                (norm1): LayerNorm((64,), eps=1e-05, elementwise_affine=True)
                (attn): WindowAttention(
                  dim=64, window_size=[3, 8, 8], num_heads=4
                  (qkv): Linear(in_features=64, out_features=192, bias=True)
                  (attn_drop): Dropout(p=0.0, inplace=False)
                  (proj): Linear(in_features=64, out_features=64, bias=True)
                  (proj_drop): Dropout(p=0.0, inplace=False)
                  (softmax): Softmax(dim=-1)
                )
                (conv_block): CAB3D(
                  (cab): Sequential(
                    (0): Conv3d(64, 21, kernel_size=(1, 3, 3), stride=(1, 1, 1), padding=(0, 1, 1))
                    (1): GELU()
                    (2): Conv3d(21, 64, kernel_size=(1, 3, 3), stride=(1, 1, 1), padding=(0, 1, 1))
                    (3): ChannelAttention3D(
                      (attention): Sequential(
                        (0): AdaptiveAvgPool3d(output_size=(1, 1, 1))
                        (1): Conv3d(64, 2, kernel_size=(1, 1, 1), stride=(1, 1, 1))
                        (2): ReLU(inplace=True)
                        (3): Conv3d(2, 64, kernel_size=(1, 1, 1), stride=(1, 1, 1))
                        (4): Sigmoid()
                      )
                    )
                  )
                )
                (drop_path): DropPath()
                (norm2): LayerNorm((64,), eps=1e-05, elementwise_affine=True)
                (mlp): Mlp(
                  (fc1): Linear(in_features=64, out_features=128, bias=True)
                  (act): GELU()
                  (fc2): Linear(in_features=128, out_features=64, bias=True)
                  (drop): Dropout(p=0.0, inplace=False)
                )
              )
              (2): HAB(
                dim=64, input_resolution=(64, 64), num_heads=4, window_size=[3, 8, 8], shift_size=(0, 0, 0), mlp_ratio=2.0
                (norm1): LayerNorm((64,), eps=1e-05, elementwise_affine=True)
                (attn): WindowAttention(
                  dim=64, window_size=[3, 8, 8], num_heads=4
                  (qkv): Linear(in_features=64, out_features=192, bias=True)
                  (attn_drop): Dropout(p=0.0, inplace=False)
                  (proj): Linear(in_features=64, out_features=64, bias=True)
                  (proj_drop): Dropout(p=0.0, inplace=False)
                  (softmax): Softmax(dim=-1)
                )
                (conv_block): CAB3D(
                  (cab): Sequential(
                    (0): Conv3d(64, 21, kernel_size=(1, 3, 3), stride=(1, 1, 1), padding=(0, 1, 1))
                    (1): GELU()
                    (2): Conv3d(21, 64, kernel_size=(1, 3, 3), stride=(1, 1, 1), padding=(0, 1, 1))
                    (3): ChannelAttention3D(
                      (attention): Sequential(
                        (0): AdaptiveAvgPool3d(output_size=(1, 1, 1))
                        (1): Conv3d(64, 2, kernel_size=(1, 1, 1), stride=(1, 1, 1))
                        (2): ReLU(inplace=True)
                        (3): Conv3d(2, 64, kernel_size=(1, 1, 1), stride=(1, 1, 1))
                        (4): Sigmoid()
                      )
                    )
                  )
                )
                (drop_path): DropPath()
                (norm2): LayerNorm((64,), eps=1e-05, elementwise_affine=True)
                (mlp): Mlp(
                  (fc1): Linear(in_features=64, out_features=128, bias=True)
                  (act): GELU()
                  (fc2): Linear(in_features=128, out_features=64, bias=True)
                  (drop): Dropout(p=0.0, inplace=False)
                )
              )
              (3): HAB(
                dim=64, input_resolution=(64, 64), num_heads=4, window_size=[3, 8, 8], shift_size=(3, 4, 4), mlp_ratio=2.0
                (norm1): LayerNorm((64,), eps=1e-05, elementwise_affine=True)
                (attn): WindowAttention(
                  dim=64, window_size=[3, 8, 8], num_heads=4
                  (qkv): Linear(in_features=64, out_features=192, bias=True)
                  (attn_drop): Dropout(p=0.0, inplace=False)
                  (proj): Linear(in_features=64, out_features=64, bias=True)
                  (proj_drop): Dropout(p=0.0, inplace=False)
                  (softmax): Softmax(dim=-1)
                )
                (conv_block): CAB3D(
                  (cab): Sequential(
                    (0): Conv3d(64, 21, kernel_size=(1, 3, 3), stride=(1, 1, 1), padding=(0, 1, 1))
                    (1): GELU()
                    (2): Conv3d(21, 64, kernel_size=(1, 3, 3), stride=(1, 1, 1), padding=(0, 1, 1))
                    (3): ChannelAttention3D(
                      (attention): Sequential(
                        (0): AdaptiveAvgPool3d(output_size=(1, 1, 1))
                        (1): Conv3d(64, 2, kernel_size=(1, 1, 1), stride=(1, 1, 1))
                        (2): ReLU(inplace=True)
                        (3): Conv3d(2, 64, kernel_size=(1, 1, 1), stride=(1, 1, 1))
                        (4): Sigmoid()
                      )
                    )
                  )
                )
                (drop_path): DropPath()
                (norm2): LayerNorm((64,), eps=1e-05, elementwise_affine=True)
                (mlp): Mlp(
                  (fc1): Linear(in_features=64, out_features=128, bias=True)
                  (act): GELU()
                  (fc2): Linear(in_features=128, out_features=64, bias=True)
                  (drop): Dropout(p=0.0, inplace=False)
                )
              )
            )
            (overlap_attn): OCAB(
              (norm1): LayerNorm((64,), eps=1e-05, elementwise_affine=True)
              (qkv): Linear(in_features=64, out_features=192, bias=True)
              (kv_partition): Overlapping_window_partition()
              (softmax): Softmax(dim=-1)
              (attn_drop): Dropout(p=0.0, inplace=False)
              (proj): Linear(in_features=64, out_features=64, bias=True)
              (proj_drop): Dropout(p=0.0, inplace=False)
              (drop_path): Identity()
              (norm2): LayerNorm((64,), eps=1e-05, elementwise_affine=True)
              (mlp): Mlp(
                (fc1): Linear(in_features=64, out_features=128, bias=True)
                (act): GELU()
                (fc2): Linear(in_features=128, out_features=64, bias=True)
                (drop): Dropout(p=0.0, inplace=False)
              )
            )
          )
          (conv): Conv2d(64, 64, kernel_size=(3, 3), stride=(1, 1), padding=(1, 1))
          (patch_embed): PatchEmbed()
          (patch_unembed): PatchUnEmbed()
        )
        (1): RHAG(
          (residual_group): AttentionBlocks(
            dim=64, input_resolution=(64, 64), depth=4
            (blocks): ModuleList(
              (0): HAB(
                dim=64, input_resolution=(64, 64), num_heads=4, window_size=[3, 8, 8], shift_size=(0, 0, 0), mlp_ratio=2.0
                (norm1): LayerNorm((64,), eps=1e-05, elementwise_affine=True)
                (attn): WindowAttention(
                  dim=64, window_size=[3, 8, 8], num_heads=4
                  (qkv): Linear(in_features=64, out_features=192, bias=True)
                  (attn_drop): Dropout(p=0.0, inplace=False)
                  (proj): Linear(in_features=64, out_features=64, bias=True)
                  (proj_drop): Dropout(p=0.0, inplace=False)
                  (softmax): Softmax(dim=-1)
                )
                (conv_block): CAB3D(
                  (cab): Sequential(
                    (0): Conv3d(64, 21, kernel_size=(1, 3, 3), stride=(1, 1, 1), padding=(0, 1, 1))
                    (1): GELU()
                    (2): Conv3d(21, 64, kernel_size=(1, 3, 3), stride=(1, 1, 1), padding=(0, 1, 1))
                    (3): ChannelAttention3D(
                      (attention): Sequential(
                        (0): AdaptiveAvgPool3d(output_size=(1, 1, 1))
                        (1): Conv3d(64, 2, kernel_size=(1, 1, 1), stride=(1, 1, 1))
                        (2): ReLU(inplace=True)
                        (3): Conv3d(2, 64, kernel_size=(1, 1, 1), stride=(1, 1, 1))
                        (4): Sigmoid()
                      )
                    )
                  )
                )
                (drop_path): DropPath()
                (norm2): LayerNorm((64,), eps=1e-05, elementwise_affine=True)
                (mlp): Mlp(
                  (fc1): Linear(in_features=64, out_features=128, bias=True)
                  (act): GELU()
                  (fc2): Linear(in_features=128, out_features=64, bias=True)
                  (drop): Dropout(p=0.0, inplace=False)
                )
              )
              (1): HAB(
                dim=64, input_resolution=(64, 64), num_heads=4, window_size=[3, 8, 8], shift_size=(3, 4, 4), mlp_ratio=2.0
                (norm1): LayerNorm((64,), eps=1e-05, elementwise_affine=True)
                (attn): WindowAttention(
                  dim=64, window_size=[3, 8, 8], num_heads=4
                  (qkv): Linear(in_features=64, out_features=192, bias=True)
                  (attn_drop): Dropout(p=0.0, inplace=False)
                  (proj): Linear(in_features=64, out_features=64, bias=True)
                  (proj_drop): Dropout(p=0.0, inplace=False)
                  (softmax): Softmax(dim=-1)
                )
                (conv_block): CAB3D(
                  (cab): Sequential(
                    (0): Conv3d(64, 21, kernel_size=(1, 3, 3), stride=(1, 1, 1), padding=(0, 1, 1))
                    (1): GELU()
                    (2): Conv3d(21, 64, kernel_size=(1, 3, 3), stride=(1, 1, 1), padding=(0, 1, 1))
                    (3): ChannelAttention3D(
                      (attention): Sequential(
                        (0): AdaptiveAvgPool3d(output_size=(1, 1, 1))
                        (1): Conv3d(64, 2, kernel_size=(1, 1, 1), stride=(1, 1, 1))
                        (2): ReLU(inplace=True)
                        (3): Conv3d(2, 64, kernel_size=(1, 1, 1), stride=(1, 1, 1))
                        (4): Sigmoid()
                      )
                    )
                  )
                )
                (drop_path): DropPath()
                (norm2): LayerNorm((64,), eps=1e-05, elementwise_affine=True)
                (mlp): Mlp(
                  (fc1): Linear(in_features=64, out_features=128, bias=True)
                  (act): GELU()
                  (fc2): Linear(in_features=128, out_features=64, bias=True)
                  (drop): Dropout(p=0.0, inplace=False)
                )
              )
              (2): HAB(
                dim=64, input_resolution=(64, 64), num_heads=4, window_size=[3, 8, 8], shift_size=(0, 0, 0), mlp_ratio=2.0
                (norm1): LayerNorm((64,), eps=1e-05, elementwise_affine=True)
                (attn): WindowAttention(
                  dim=64, window_size=[3, 8, 8], num_heads=4
                  (qkv): Linear(in_features=64, out_features=192, bias=True)
                  (attn_drop): Dropout(p=0.0, inplace=False)
                  (proj): Linear(in_features=64, out_features=64, bias=True)
                  (proj_drop): Dropout(p=0.0, inplace=False)
                  (softmax): Softmax(dim=-1)
                )
                (conv_block): CAB3D(
                  (cab): Sequential(
                    (0): Conv3d(64, 21, kernel_size=(1, 3, 3), stride=(1, 1, 1), padding=(0, 1, 1))
                    (1): GELU()
                    (2): Conv3d(21, 64, kernel_size=(1, 3, 3), stride=(1, 1, 1), padding=(0, 1, 1))
                    (3): ChannelAttention3D(
                      (attention): Sequential(
                        (0): AdaptiveAvgPool3d(output_size=(1, 1, 1))
                        (1): Conv3d(64, 2, kernel_size=(1, 1, 1), stride=(1, 1, 1))
                        (2): ReLU(inplace=True)
                        (3): Conv3d(2, 64, kernel_size=(1, 1, 1), stride=(1, 1, 1))
                        (4): Sigmoid()
                      )
                    )
                  )
                )
                (drop_path): DropPath()
                (norm2): LayerNorm((64,), eps=1e-05, elementwise_affine=True)
                (mlp): Mlp(
                  (fc1): Linear(in_features=64, out_features=128, bias=True)
                  (act): GELU()
                  (fc2): Linear(in_features=128, out_features=64, bias=True)
                  (drop): Dropout(p=0.0, inplace=False)
                )
              )
              (3): HAB(
                dim=64, input_resolution=(64, 64), num_heads=4, window_size=[3, 8, 8], shift_size=(3, 4, 4), mlp_ratio=2.0
                (norm1): LayerNorm((64,), eps=1e-05, elementwise_affine=True)
                (attn): WindowAttention(
                  dim=64, window_size=[3, 8, 8], num_heads=4
                  (qkv): Linear(in_features=64, out_features=192, bias=True)
                  (attn_drop): Dropout(p=0.0, inplace=False)
                  (proj): Linear(in_features=64, out_features=64, bias=True)
                  (proj_drop): Dropout(p=0.0, inplace=False)
                  (softmax): Softmax(dim=-1)
                )
                (conv_block): CAB3D(
                  (cab): Sequential(
                    (0): Conv3d(64, 21, kernel_size=(1, 3, 3), stride=(1, 1, 1), padding=(0, 1, 1))
                    (1): GELU()
                    (2): Conv3d(21, 64, kernel_size=(1, 3, 3), stride=(1, 1, 1), padding=(0, 1, 1))
                    (3): ChannelAttention3D(
                      (attention): Sequential(
                        (0): AdaptiveAvgPool3d(output_size=(1, 1, 1))
                        (1): Conv3d(64, 2, kernel_size=(1, 1, 1), stride=(1, 1, 1))
                        (2): ReLU(inplace=True)
                        (3): Conv3d(2, 64, kernel_size=(1, 1, 1), stride=(1, 1, 1))
                        (4): Sigmoid()
                      )
                    )
                  )
                )
                (drop_path): DropPath()
                (norm2): LayerNorm((64,), eps=1e-05, elementwise_affine=True)
                (mlp): Mlp(
                  (fc1): Linear(in_features=64, out_features=128, bias=True)
                  (act): GELU()
                  (fc2): Linear(in_features=128, out_features=64, bias=True)
                  (drop): Dropout(p=0.0, inplace=False)
                )
              )
            )
            (overlap_attn): OCAB(
              (norm1): LayerNorm((64,), eps=1e-05, elementwise_affine=True)
              (qkv): Linear(in_features=64, out_features=192, bias=True)
              (kv_partition): Overlapping_window_partition()
              (softmax): Softmax(dim=-1)
              (attn_drop): Dropout(p=0.0, inplace=False)
              (proj): Linear(in_features=64, out_features=64, bias=True)
              (proj_drop): Dropout(p=0.0, inplace=False)
              (drop_path): Identity()
              (norm2): LayerNorm((64,), eps=1e-05, elementwise_affine=True)
              (mlp): Mlp(
                (fc1): Linear(in_features=64, out_features=128, bias=True)
                (act): GELU()
                (fc2): Linear(in_features=128, out_features=64, bias=True)
                (drop): Dropout(p=0.0, inplace=False)
              )
            )
          )
          (conv): Conv2d(64, 64, kernel_size=(3, 3), stride=(1, 1), padding=(1, 1))
          (patch_embed): PatchEmbed()
          (patch_unembed): PatchUnEmbed()
        )
        (2): RHAG(
          (residual_group): AttentionBlocks(
            dim=64, input_resolution=(64, 64), depth=4
            (blocks): ModuleList(
              (0): HAB(
                dim=64, input_resolution=(64, 64), num_heads=4, window_size=[3, 8, 8], shift_size=(0, 0, 0), mlp_ratio=2.0
                (norm1): LayerNorm((64,), eps=1e-05, elementwise_affine=True)
                (attn): WindowAttention(
                  dim=64, window_size=[3, 8, 8], num_heads=4
                  (qkv): Linear(in_features=64, out_features=192, bias=True)
                  (attn_drop): Dropout(p=0.0, inplace=False)
                  (proj): Linear(in_features=64, out_features=64, bias=True)
                  (proj_drop): Dropout(p=0.0, inplace=False)
                  (softmax): Softmax(dim=-1)
                )
                (conv_block): CAB3D(
                  (cab): Sequential(
                    (0): Conv3d(64, 21, kernel_size=(1, 3, 3), stride=(1, 1, 1), padding=(0, 1, 1))
                    (1): GELU()
                    (2): Conv3d(21, 64, kernel_size=(1, 3, 3), stride=(1, 1, 1), padding=(0, 1, 1))
                    (3): ChannelAttention3D(
                      (attention): Sequential(
                        (0): AdaptiveAvgPool3d(output_size=(1, 1, 1))
                        (1): Conv3d(64, 2, kernel_size=(1, 1, 1), stride=(1, 1, 1))
                        (2): ReLU(inplace=True)
                        (3): Conv3d(2, 64, kernel_size=(1, 1, 1), stride=(1, 1, 1))
                        (4): Sigmoid()
                      )
                    )
                  )
                )
                (drop_path): DropPath()
                (norm2): LayerNorm((64,), eps=1e-05, elementwise_affine=True)
                (mlp): Mlp(
                  (fc1): Linear(in_features=64, out_features=128, bias=True)
                  (act): GELU()
                  (fc2): Linear(in_features=128, out_features=64, bias=True)
                  (drop): Dropout(p=0.0, inplace=False)
                )
              )
              (1): HAB(
                dim=64, input_resolution=(64, 64), num_heads=4, window_size=[3, 8, 8], shift_size=(3, 4, 4), mlp_ratio=2.0
                (norm1): LayerNorm((64,), eps=1e-05, elementwise_affine=True)
                (attn): WindowAttention(
                  dim=64, window_size=[3, 8, 8], num_heads=4
                  (qkv): Linear(in_features=64, out_features=192, bias=True)
                  (attn_drop): Dropout(p=0.0, inplace=False)
                  (proj): Linear(in_features=64, out_features=64, bias=True)
                  (proj_drop): Dropout(p=0.0, inplace=False)
                  (softmax): Softmax(dim=-1)
                )
                (conv_block): CAB3D(
                  (cab): Sequential(
                    (0): Conv3d(64, 21, kernel_size=(1, 3, 3), stride=(1, 1, 1), padding=(0, 1, 1))
                    (1): GELU()
                    (2): Conv3d(21, 64, kernel_size=(1, 3, 3), stride=(1, 1, 1), padding=(0, 1, 1))
                    (3): ChannelAttention3D(
                      (attention): Sequential(
                        (0): AdaptiveAvgPool3d(output_size=(1, 1, 1))
                        (1): Conv3d(64, 2, kernel_size=(1, 1, 1), stride=(1, 1, 1))
                        (2): ReLU(inplace=True)
                        (3): Conv3d(2, 64, kernel_size=(1, 1, 1), stride=(1, 1, 1))
                        (4): Sigmoid()
                      )
                    )
                  )
                )
                (drop_path): DropPath()
                (norm2): LayerNorm((64,), eps=1e-05, elementwise_affine=True)
                (mlp): Mlp(
                  (fc1): Linear(in_features=64, out_features=128, bias=True)
                  (act): GELU()
                  (fc2): Linear(in_features=128, out_features=64, bias=True)
                  (drop): Dropout(p=0.0, inplace=False)
                )
              )
              (2): HAB(
                dim=64, input_resolution=(64, 64), num_heads=4, window_size=[3, 8, 8], shift_size=(0, 0, 0), mlp_ratio=2.0
                (norm1): LayerNorm((64,), eps=1e-05, elementwise_affine=True)
                (attn): WindowAttention(
                  dim=64, window_size=[3, 8, 8], num_heads=4
                  (qkv): Linear(in_features=64, out_features=192, bias=True)
                  (attn_drop): Dropout(p=0.0, inplace=False)
                  (proj): Linear(in_features=64, out_features=64, bias=True)
                  (proj_drop): Dropout(p=0.0, inplace=False)
                  (softmax): Softmax(dim=-1)
                )
                (conv_block): CAB3D(
                  (cab): Sequential(
                    (0): Conv3d(64, 21, kernel_size=(1, 3, 3), stride=(1, 1, 1), padding=(0, 1, 1))
                    (1): GELU()
                    (2): Conv3d(21, 64, kernel_size=(1, 3, 3), stride=(1, 1, 1), padding=(0, 1, 1))
                    (3): ChannelAttention3D(
                      (attention): Sequential(
                        (0): AdaptiveAvgPool3d(output_size=(1, 1, 1))
                        (1): Conv3d(64, 2, kernel_size=(1, 1, 1), stride=(1, 1, 1))
                        (2): ReLU(inplace=True)
                        (3): Conv3d(2, 64, kernel_size=(1, 1, 1), stride=(1, 1, 1))
                        (4): Sigmoid()
                      )
                    )
                  )
                )
                (drop_path): DropPath()
                (norm2): LayerNorm((64,), eps=1e-05, elementwise_affine=True)
                (mlp): Mlp(
                  (fc1): Linear(in_features=64, out_features=128, bias=True)
                  (act): GELU()
                  (fc2): Linear(in_features=128, out_features=64, bias=True)
                  (drop): Dropout(p=0.0, inplace=False)
                )
              )
              (3): HAB(
                dim=64, input_resolution=(64, 64), num_heads=4, window_size=[3, 8, 8], shift_size=(3, 4, 4), mlp_ratio=2.0
                (norm1): LayerNorm((64,), eps=1e-05, elementwise_affine=True)
                (attn): WindowAttention(
                  dim=64, window_size=[3, 8, 8], num_heads=4
                  (qkv): Linear(in_features=64, out_features=192, bias=True)
                  (attn_drop): Dropout(p=0.0, inplace=False)
                  (proj): Linear(in_features=64, out_features=64, bias=True)
                  (proj_drop): Dropout(p=0.0, inplace=False)
                  (softmax): Softmax(dim=-1)
                )
                (conv_block): CAB3D(
                  (cab): Sequential(
                    (0): Conv3d(64, 21, kernel_size=(1, 3, 3), stride=(1, 1, 1), padding=(0, 1, 1))
                    (1): GELU()
                    (2): Conv3d(21, 64, kernel_size=(1, 3, 3), stride=(1, 1, 1), padding=(0, 1, 1))
                    (3): ChannelAttention3D(
                      (attention): Sequential(
                        (0): AdaptiveAvgPool3d(output_size=(1, 1, 1))
                        (1): Conv3d(64, 2, kernel_size=(1, 1, 1), stride=(1, 1, 1))
                        (2): ReLU(inplace=True)
                        (3): Conv3d(2, 64, kernel_size=(1, 1, 1), stride=(1, 1, 1))
                        (4): Sigmoid()
                      )
                    )
                  )
                )
                (drop_path): DropPath()
                (norm2): LayerNorm((64,), eps=1e-05, elementwise_affine=True)
                (mlp): Mlp(
                  (fc1): Linear(in_features=64, out_features=128, bias=True)
                  (act): GELU()
                  (fc2): Linear(in_features=128, out_features=64, bias=True)
                  (drop): Dropout(p=0.0, inplace=False)
                )
              )
            )
            (overlap_attn): OCAB(
              (norm1): LayerNorm((64,), eps=1e-05, elementwise_affine=True)
              (qkv): Linear(in_features=64, out_features=192, bias=True)
              (kv_partition): Overlapping_window_partition()
              (softmax): Softmax(dim=-1)
              (attn_drop): Dropout(p=0.0, inplace=False)
              (proj): Linear(in_features=64, out_features=64, bias=True)
              (proj_drop): Dropout(p=0.0, inplace=False)
              (drop_path): Identity()
              (norm2): LayerNorm((64,), eps=1e-05, elementwise_affine=True)
              (mlp): Mlp(
                (fc1): Linear(in_features=64, out_features=128, bias=True)
                (act): GELU()
                (fc2): Linear(in_features=128, out_features=64, bias=True)
                (drop): Dropout(p=0.0, inplace=False)
              )
            )
          )
          (conv): Conv2d(64, 64, kernel_size=(3, 3), stride=(1, 1), padding=(1, 1))
          (patch_embed): PatchEmbed()
          (patch_unembed): PatchUnEmbed()
        )
      )
      (norm): LayerNorm((64,), eps=1e-05, elementwise_affine=True)
      (conv_after_body): Conv2d(64, 64, kernel_size=(3, 3), stride=(1, 1), padding=(1, 1))
      (lrelu): LeakyReLU(negative_slope=0.1, inplace=True)
      (conv_before_upsample): Conv2d(64, 64, kernel_size=(3, 3), stride=(1, 1), padding=(1, 1))
    )
    (backward_2): MFHAT(
      (conv_first): Conv2d(3, 64, kernel_size=(3, 3), stride=(1, 1), padding=(1, 1))
      (conv_first_feat): Conv2d(64, 64, kernel_size=(3, 3), stride=(1, 1), padding=(1, 1))
      (patch_embed): PatchEmbed(
        (norm): LayerNorm((64,), eps=1e-05, elementwise_affine=True)
      )
      (patch_unembed): PatchUnEmbed()
      (pos_drop): Dropout(p=0.0, inplace=False)
      (layers): ModuleList(
        (0): RHAG(
          (residual_group): AttentionBlocks(
            dim=64, input_resolution=(64, 64), depth=4
            (blocks): ModuleList(
              (0): HAB(
                dim=64, input_resolution=(64, 64), num_heads=4, window_size=[3, 8, 8], shift_size=(0, 0, 0), mlp_ratio=2.0
                (norm1): LayerNorm((64,), eps=1e-05, elementwise_affine=True)
                (attn): WindowAttention(
                  dim=64, window_size=[3, 8, 8], num_heads=4
                  (qkv): Linear(in_features=64, out_features=192, bias=True)
                  (attn_drop): Dropout(p=0.0, inplace=False)
                  (proj): Linear(in_features=64, out_features=64, bias=True)
                  (proj_drop): Dropout(p=0.0, inplace=False)
                  (softmax): Softmax(dim=-1)
                )
                (conv_block): CAB3D(
                  (cab): Sequential(
                    (0): Conv3d(64, 21, kernel_size=(1, 3, 3), stride=(1, 1, 1), padding=(0, 1, 1))
                    (1): GELU()
                    (2): Conv3d(21, 64, kernel_size=(1, 3, 3), stride=(1, 1, 1), padding=(0, 1, 1))
                    (3): ChannelAttention3D(
                      (attention): Sequential(
                        (0): AdaptiveAvgPool3d(output_size=(1, 1, 1))
                        (1): Conv3d(64, 2, kernel_size=(1, 1, 1), stride=(1, 1, 1))
                        (2): ReLU(inplace=True)
                        (3): Conv3d(2, 64, kernel_size=(1, 1, 1), stride=(1, 1, 1))
                        (4): Sigmoid()
                      )
                    )
                  )
                )
                (drop_path): Identity()
                (norm2): LayerNorm((64,), eps=1e-05, elementwise_affine=True)
                (mlp): Mlp(
                  (fc1): Linear(in_features=64, out_features=128, bias=True)
                  (act): GELU()
                  (fc2): Linear(in_features=128, out_features=64, bias=True)
                  (drop): Dropout(p=0.0, inplace=False)
                )
              )
              (1): HAB(
                dim=64, input_resolution=(64, 64), num_heads=4, window_size=[3, 8, 8], shift_size=(3, 4, 4), mlp_ratio=2.0
                (norm1): LayerNorm((64,), eps=1e-05, elementwise_affine=True)
                (attn): WindowAttention(
                  dim=64, window_size=[3, 8, 8], num_heads=4
                  (qkv): Linear(in_features=64, out_features=192, bias=True)
                  (attn_drop): Dropout(p=0.0, inplace=False)
                  (proj): Linear(in_features=64, out_features=64, bias=True)
                  (proj_drop): Dropout(p=0.0, inplace=False)
                  (softmax): Softmax(dim=-1)
                )
                (conv_block): CAB3D(
                  (cab): Sequential(
                    (0): Conv3d(64, 21, kernel_size=(1, 3, 3), stride=(1, 1, 1), padding=(0, 1, 1))
                    (1): GELU()
                    (2): Conv3d(21, 64, kernel_size=(1, 3, 3), stride=(1, 1, 1), padding=(0, 1, 1))
                    (3): ChannelAttention3D(
                      (attention): Sequential(
                        (0): AdaptiveAvgPool3d(output_size=(1, 1, 1))
                        (1): Conv3d(64, 2, kernel_size=(1, 1, 1), stride=(1, 1, 1))
                        (2): ReLU(inplace=True)
                        (3): Conv3d(2, 64, kernel_size=(1, 1, 1), stride=(1, 1, 1))
                        (4): Sigmoid()
                      )
                    )
                  )
                )
                (drop_path): DropPath()
                (norm2): LayerNorm((64,), eps=1e-05, elementwise_affine=True)
                (mlp): Mlp(
                  (fc1): Linear(in_features=64, out_features=128, bias=True)
                  (act): GELU()
                  (fc2): Linear(in_features=128, out_features=64, bias=True)
                  (drop): Dropout(p=0.0, inplace=False)
                )
              )
              (2): HAB(
                dim=64, input_resolution=(64, 64), num_heads=4, window_size=[3, 8, 8], shift_size=(0, 0, 0), mlp_ratio=2.0
                (norm1): LayerNorm((64,), eps=1e-05, elementwise_affine=True)
                (attn): WindowAttention(
                  dim=64, window_size=[3, 8, 8], num_heads=4
                  (qkv): Linear(in_features=64, out_features=192, bias=True)
                  (attn_drop): Dropout(p=0.0, inplace=False)
                  (proj): Linear(in_features=64, out_features=64, bias=True)
                  (proj_drop): Dropout(p=0.0, inplace=False)
                  (softmax): Softmax(dim=-1)
                )
                (conv_block): CAB3D(
                  (cab): Sequential(
                    (0): Conv3d(64, 21, kernel_size=(1, 3, 3), stride=(1, 1, 1), padding=(0, 1, 1))
                    (1): GELU()
                    (2): Conv3d(21, 64, kernel_size=(1, 3, 3), stride=(1, 1, 1), padding=(0, 1, 1))
                    (3): ChannelAttention3D(
                      (attention): Sequential(
                        (0): AdaptiveAvgPool3d(output_size=(1, 1, 1))
                        (1): Conv3d(64, 2, kernel_size=(1, 1, 1), stride=(1, 1, 1))
                        (2): ReLU(inplace=True)
                        (3): Conv3d(2, 64, kernel_size=(1, 1, 1), stride=(1, 1, 1))
                        (4): Sigmoid()
                      )
                    )
                  )
                )
                (drop_path): DropPath()
                (norm2): LayerNorm((64,), eps=1e-05, elementwise_affine=True)
                (mlp): Mlp(
                  (fc1): Linear(in_features=64, out_features=128, bias=True)
                  (act): GELU()
                  (fc2): Linear(in_features=128, out_features=64, bias=True)
                  (drop): Dropout(p=0.0, inplace=False)
                )
              )
              (3): HAB(
                dim=64, input_resolution=(64, 64), num_heads=4, window_size=[3, 8, 8], shift_size=(3, 4, 4), mlp_ratio=2.0
                (norm1): LayerNorm((64,), eps=1e-05, elementwise_affine=True)
                (attn): WindowAttention(
                  dim=64, window_size=[3, 8, 8], num_heads=4
                  (qkv): Linear(in_features=64, out_features=192, bias=True)
                  (attn_drop): Dropout(p=0.0, inplace=False)
                  (proj): Linear(in_features=64, out_features=64, bias=True)
                  (proj_drop): Dropout(p=0.0, inplace=False)
                  (softmax): Softmax(dim=-1)
                )
                (conv_block): CAB3D(
                  (cab): Sequential(
                    (0): Conv3d(64, 21, kernel_size=(1, 3, 3), stride=(1, 1, 1), padding=(0, 1, 1))
                    (1): GELU()
                    (2): Conv3d(21, 64, kernel_size=(1, 3, 3), stride=(1, 1, 1), padding=(0, 1, 1))
                    (3): ChannelAttention3D(
                      (attention): Sequential(
                        (0): AdaptiveAvgPool3d(output_size=(1, 1, 1))
                        (1): Conv3d(64, 2, kernel_size=(1, 1, 1), stride=(1, 1, 1))
                        (2): ReLU(inplace=True)
                        (3): Conv3d(2, 64, kernel_size=(1, 1, 1), stride=(1, 1, 1))
                        (4): Sigmoid()
                      )
                    )
                  )
                )
                (drop_path): DropPath()
                (norm2): LayerNorm((64,), eps=1e-05, elementwise_affine=True)
                (mlp): Mlp(
                  (fc1): Linear(in_features=64, out_features=128, bias=True)
                  (act): GELU()
                  (fc2): Linear(in_features=128, out_features=64, bias=True)
                  (drop): Dropout(p=0.0, inplace=False)
                )
              )
            )
            (overlap_attn): OCAB(
              (norm1): LayerNorm((64,), eps=1e-05, elementwise_affine=True)
              (qkv): Linear(in_features=64, out_features=192, bias=True)
              (kv_partition): Overlapping_window_partition()
              (softmax): Softmax(dim=-1)
              (attn_drop): Dropout(p=0.0, inplace=False)
              (proj): Linear(in_features=64, out_features=64, bias=True)
              (proj_drop): Dropout(p=0.0, inplace=False)
              (drop_path): Identity()
              (norm2): LayerNorm((64,), eps=1e-05, elementwise_affine=True)
              (mlp): Mlp(
                (fc1): Linear(in_features=64, out_features=128, bias=True)
                (act): GELU()
                (fc2): Linear(in_features=128, out_features=64, bias=True)
                (drop): Dropout(p=0.0, inplace=False)
              )
            )
          )
          (conv): Conv2d(64, 64, kernel_size=(3, 3), stride=(1, 1), padding=(1, 1))
          (patch_embed): PatchEmbed()
          (patch_unembed): PatchUnEmbed()
        )
        (1): RHAG(
          (residual_group): AttentionBlocks(
            dim=64, input_resolution=(64, 64), depth=4
            (blocks): ModuleList(
              (0): HAB(
                dim=64, input_resolution=(64, 64), num_heads=4, window_size=[3, 8, 8], shift_size=(0, 0, 0), mlp_ratio=2.0
                (norm1): LayerNorm((64,), eps=1e-05, elementwise_affine=True)
                (attn): WindowAttention(
                  dim=64, window_size=[3, 8, 8], num_heads=4
                  (qkv): Linear(in_features=64, out_features=192, bias=True)
                  (attn_drop): Dropout(p=0.0, inplace=False)
                  (proj): Linear(in_features=64, out_features=64, bias=True)
                  (proj_drop): Dropout(p=0.0, inplace=False)
                  (softmax): Softmax(dim=-1)
                )
                (conv_block): CAB3D(
                  (cab): Sequential(
                    (0): Conv3d(64, 21, kernel_size=(1, 3, 3), stride=(1, 1, 1), padding=(0, 1, 1))
                    (1): GELU()
                    (2): Conv3d(21, 64, kernel_size=(1, 3, 3), stride=(1, 1, 1), padding=(0, 1, 1))
                    (3): ChannelAttention3D(
                      (attention): Sequential(
                        (0): AdaptiveAvgPool3d(output_size=(1, 1, 1))
                        (1): Conv3d(64, 2, kernel_size=(1, 1, 1), stride=(1, 1, 1))
                        (2): ReLU(inplace=True)
                        (3): Conv3d(2, 64, kernel_size=(1, 1, 1), stride=(1, 1, 1))
                        (4): Sigmoid()
                      )
                    )
                  )
                )
                (drop_path): DropPath()
                (norm2): LayerNorm((64,), eps=1e-05, elementwise_affine=True)
                (mlp): Mlp(
                  (fc1): Linear(in_features=64, out_features=128, bias=True)
                  (act): GELU()
                  (fc2): Linear(in_features=128, out_features=64, bias=True)
                  (drop): Dropout(p=0.0, inplace=False)
                )
              )
              (1): HAB(
                dim=64, input_resolution=(64, 64), num_heads=4, window_size=[3, 8, 8], shift_size=(3, 4, 4), mlp_ratio=2.0
                (norm1): LayerNorm((64,), eps=1e-05, elementwise_affine=True)
                (attn): WindowAttention(
                  dim=64, window_size=[3, 8, 8], num_heads=4
                  (qkv): Linear(in_features=64, out_features=192, bias=True)
                  (attn_drop): Dropout(p=0.0, inplace=False)
                  (proj): Linear(in_features=64, out_features=64, bias=True)
                  (proj_drop): Dropout(p=0.0, inplace=False)
                  (softmax): Softmax(dim=-1)
                )
                (conv_block): CAB3D(
                  (cab): Sequential(
                    (0): Conv3d(64, 21, kernel_size=(1, 3, 3), stride=(1, 1, 1), padding=(0, 1, 1))
                    (1): GELU()
                    (2): Conv3d(21, 64, kernel_size=(1, 3, 3), stride=(1, 1, 1), padding=(0, 1, 1))
                    (3): ChannelAttention3D(
                      (attention): Sequential(
                        (0): AdaptiveAvgPool3d(output_size=(1, 1, 1))
                        (1): Conv3d(64, 2, kernel_size=(1, 1, 1), stride=(1, 1, 1))
                        (2): ReLU(inplace=True)
                        (3): Conv3d(2, 64, kernel_size=(1, 1, 1), stride=(1, 1, 1))
                        (4): Sigmoid()
                      )
                    )
                  )
                )
                (drop_path): DropPath()
                (norm2): LayerNorm((64,), eps=1e-05, elementwise_affine=True)
                (mlp): Mlp(
                  (fc1): Linear(in_features=64, out_features=128, bias=True)
                  (act): GELU()
                  (fc2): Linear(in_features=128, out_features=64, bias=True)
                  (drop): Dropout(p=0.0, inplace=False)
                )
              )
              (2): HAB(
                dim=64, input_resolution=(64, 64), num_heads=4, window_size=[3, 8, 8], shift_size=(0, 0, 0), mlp_ratio=2.0
                (norm1): LayerNorm((64,), eps=1e-05, elementwise_affine=True)
                (attn): WindowAttention(
                  dim=64, window_size=[3, 8, 8], num_heads=4
                  (qkv): Linear(in_features=64, out_features=192, bias=True)
                  (attn_drop): Dropout(p=0.0, inplace=False)
                  (proj): Linear(in_features=64, out_features=64, bias=True)
                  (proj_drop): Dropout(p=0.0, inplace=False)
                  (softmax): Softmax(dim=-1)
                )
                (conv_block): CAB3D(
                  (cab): Sequential(
                    (0): Conv3d(64, 21, kernel_size=(1, 3, 3), stride=(1, 1, 1), padding=(0, 1, 1))
                    (1): GELU()
                    (2): Conv3d(21, 64, kernel_size=(1, 3, 3), stride=(1, 1, 1), padding=(0, 1, 1))
                    (3): ChannelAttention3D(
                      (attention): Sequential(
                        (0): AdaptiveAvgPool3d(output_size=(1, 1, 1))
                        (1): Conv3d(64, 2, kernel_size=(1, 1, 1), stride=(1, 1, 1))
                        (2): ReLU(inplace=True)
                        (3): Conv3d(2, 64, kernel_size=(1, 1, 1), stride=(1, 1, 1))
                        (4): Sigmoid()
                      )
                    )
                  )
                )
                (drop_path): DropPath()
                (norm2): LayerNorm((64,), eps=1e-05, elementwise_affine=True)
                (mlp): Mlp(
                  (fc1): Linear(in_features=64, out_features=128, bias=True)
                  (act): GELU()
                  (fc2): Linear(in_features=128, out_features=64, bias=True)
                  (drop): Dropout(p=0.0, inplace=False)
                )
              )
              (3): HAB(
                dim=64, input_resolution=(64, 64), num_heads=4, window_size=[3, 8, 8], shift_size=(3, 4, 4), mlp_ratio=2.0
                (norm1): LayerNorm((64,), eps=1e-05, elementwise_affine=True)
                (attn): WindowAttention(
                  dim=64, window_size=[3, 8, 8], num_heads=4
                  (qkv): Linear(in_features=64, out_features=192, bias=True)
                  (attn_drop): Dropout(p=0.0, inplace=False)
                  (proj): Linear(in_features=64, out_features=64, bias=True)
                  (proj_drop): Dropout(p=0.0, inplace=False)
                  (softmax): Softmax(dim=-1)
                )
                (conv_block): CAB3D(
                  (cab): Sequential(
                    (0): Conv3d(64, 21, kernel_size=(1, 3, 3), stride=(1, 1, 1), padding=(0, 1, 1))
                    (1): GELU()
                    (2): Conv3d(21, 64, kernel_size=(1, 3, 3), stride=(1, 1, 1), padding=(0, 1, 1))
                    (3): ChannelAttention3D(
                      (attention): Sequential(
                        (0): AdaptiveAvgPool3d(output_size=(1, 1, 1))
                        (1): Conv3d(64, 2, kernel_size=(1, 1, 1), stride=(1, 1, 1))
                        (2): ReLU(inplace=True)
                        (3): Conv3d(2, 64, kernel_size=(1, 1, 1), stride=(1, 1, 1))
                        (4): Sigmoid()
                      )
                    )
                  )
                )
                (drop_path): DropPath()
                (norm2): LayerNorm((64,), eps=1e-05, elementwise_affine=True)
                (mlp): Mlp(
                  (fc1): Linear(in_features=64, out_features=128, bias=True)
                  (act): GELU()
                  (fc2): Linear(in_features=128, out_features=64, bias=True)
                  (drop): Dropout(p=0.0, inplace=False)
                )
              )
            )
            (overlap_attn): OCAB(
              (norm1): LayerNorm((64,), eps=1e-05, elementwise_affine=True)
              (qkv): Linear(in_features=64, out_features=192, bias=True)
              (kv_partition): Overlapping_window_partition()
              (softmax): Softmax(dim=-1)
              (attn_drop): Dropout(p=0.0, inplace=False)
              (proj): Linear(in_features=64, out_features=64, bias=True)
              (proj_drop): Dropout(p=0.0, inplace=False)
              (drop_path): Identity()
              (norm2): LayerNorm((64,), eps=1e-05, elementwise_affine=True)
              (mlp): Mlp(
                (fc1): Linear(in_features=64, out_features=128, bias=True)
                (act): GELU()
                (fc2): Linear(in_features=128, out_features=64, bias=True)
                (drop): Dropout(p=0.0, inplace=False)
              )
            )
          )
          (conv): Conv2d(64, 64, kernel_size=(3, 3), stride=(1, 1), padding=(1, 1))
          (patch_embed): PatchEmbed()
          (patch_unembed): PatchUnEmbed()
        )
        (2): RHAG(
          (residual_group): AttentionBlocks(
            dim=64, input_resolution=(64, 64), depth=4
            (blocks): ModuleList(
              (0): HAB(
                dim=64, input_resolution=(64, 64), num_heads=4, window_size=[3, 8, 8], shift_size=(0, 0, 0), mlp_ratio=2.0
                (norm1): LayerNorm((64,), eps=1e-05, elementwise_affine=True)
                (attn): WindowAttention(
                  dim=64, window_size=[3, 8, 8], num_heads=4
                  (qkv): Linear(in_features=64, out_features=192, bias=True)
                  (attn_drop): Dropout(p=0.0, inplace=False)
                  (proj): Linear(in_features=64, out_features=64, bias=True)
                  (proj_drop): Dropout(p=0.0, inplace=False)
                  (softmax): Softmax(dim=-1)
                )
                (conv_block): CAB3D(
                  (cab): Sequential(
                    (0): Conv3d(64, 21, kernel_size=(1, 3, 3), stride=(1, 1, 1), padding=(0, 1, 1))
                    (1): GELU()
                    (2): Conv3d(21, 64, kernel_size=(1, 3, 3), stride=(1, 1, 1), padding=(0, 1, 1))
                    (3): ChannelAttention3D(
                      (attention): Sequential(
                        (0): AdaptiveAvgPool3d(output_size=(1, 1, 1))
                        (1): Conv3d(64, 2, kernel_size=(1, 1, 1), stride=(1, 1, 1))
                        (2): ReLU(inplace=True)
                        (3): Conv3d(2, 64, kernel_size=(1, 1, 1), stride=(1, 1, 1))
                        (4): Sigmoid()
                      )
                    )
                  )
                )
                (drop_path): DropPath()
                (norm2): LayerNorm((64,), eps=1e-05, elementwise_affine=True)
                (mlp): Mlp(
                  (fc1): Linear(in_features=64, out_features=128, bias=True)
                  (act): GELU()
                  (fc2): Linear(in_features=128, out_features=64, bias=True)
                  (drop): Dropout(p=0.0, inplace=False)
                )
              )
              (1): HAB(
                dim=64, input_resolution=(64, 64), num_heads=4, window_size=[3, 8, 8], shift_size=(3, 4, 4), mlp_ratio=2.0
                (norm1): LayerNorm((64,), eps=1e-05, elementwise_affine=True)
                (attn): WindowAttention(
                  dim=64, window_size=[3, 8, 8], num_heads=4
                  (qkv): Linear(in_features=64, out_features=192, bias=True)
                  (attn_drop): Dropout(p=0.0, inplace=False)
                  (proj): Linear(in_features=64, out_features=64, bias=True)
                  (proj_drop): Dropout(p=0.0, inplace=False)
                  (softmax): Softmax(dim=-1)
                )
                (conv_block): CAB3D(
                  (cab): Sequential(
                    (0): Conv3d(64, 21, kernel_size=(1, 3, 3), stride=(1, 1, 1), padding=(0, 1, 1))
                    (1): GELU()
                    (2): Conv3d(21, 64, kernel_size=(1, 3, 3), stride=(1, 1, 1), padding=(0, 1, 1))
                    (3): ChannelAttention3D(
                      (attention): Sequential(
                        (0): AdaptiveAvgPool3d(output_size=(1, 1, 1))
                        (1): Conv3d(64, 2, kernel_size=(1, 1, 1), stride=(1, 1, 1))
                        (2): ReLU(inplace=True)
                        (3): Conv3d(2, 64, kernel_size=(1, 1, 1), stride=(1, 1, 1))
                        (4): Sigmoid()
                      )
                    )
                  )
                )
                (drop_path): DropPath()
                (norm2): LayerNorm((64,), eps=1e-05, elementwise_affine=True)
                (mlp): Mlp(
                  (fc1): Linear(in_features=64, out_features=128, bias=True)
                  (act): GELU()
                  (fc2): Linear(in_features=128, out_features=64, bias=True)
                  (drop): Dropout(p=0.0, inplace=False)
                )
              )
              (2): HAB(
                dim=64, input_resolution=(64, 64), num_heads=4, window_size=[3, 8, 8], shift_size=(0, 0, 0), mlp_ratio=2.0
                (norm1): LayerNorm((64,), eps=1e-05, elementwise_affine=True)
                (attn): WindowAttention(
                  dim=64, window_size=[3, 8, 8], num_heads=4
                  (qkv): Linear(in_features=64, out_features=192, bias=True)
                  (attn_drop): Dropout(p=0.0, inplace=False)
                  (proj): Linear(in_features=64, out_features=64, bias=True)
                  (proj_drop): Dropout(p=0.0, inplace=False)
                  (softmax): Softmax(dim=-1)
                )
                (conv_block): CAB3D(
                  (cab): Sequential(
                    (0): Conv3d(64, 21, kernel_size=(1, 3, 3), stride=(1, 1, 1), padding=(0, 1, 1))
                    (1): GELU()
                    (2): Conv3d(21, 64, kernel_size=(1, 3, 3), stride=(1, 1, 1), padding=(0, 1, 1))
                    (3): ChannelAttention3D(
                      (attention): Sequential(
                        (0): AdaptiveAvgPool3d(output_size=(1, 1, 1))
                        (1): Conv3d(64, 2, kernel_size=(1, 1, 1), stride=(1, 1, 1))
                        (2): ReLU(inplace=True)
                        (3): Conv3d(2, 64, kernel_size=(1, 1, 1), stride=(1, 1, 1))
                        (4): Sigmoid()
                      )
                    )
                  )
                )
                (drop_path): DropPath()
                (norm2): LayerNorm((64,), eps=1e-05, elementwise_affine=True)
                (mlp): Mlp(
                  (fc1): Linear(in_features=64, out_features=128, bias=True)
                  (act): GELU()
                  (fc2): Linear(in_features=128, out_features=64, bias=True)
                  (drop): Dropout(p=0.0, inplace=False)
                )
              )
              (3): HAB(
                dim=64, input_resolution=(64, 64), num_heads=4, window_size=[3, 8, 8], shift_size=(3, 4, 4), mlp_ratio=2.0
                (norm1): LayerNorm((64,), eps=1e-05, elementwise_affine=True)
                (attn): WindowAttention(
                  dim=64, window_size=[3, 8, 8], num_heads=4
                  (qkv): Linear(in_features=64, out_features=192, bias=True)
                  (attn_drop): Dropout(p=0.0, inplace=False)
                  (proj): Linear(in_features=64, out_features=64, bias=True)
                  (proj_drop): Dropout(p=0.0, inplace=False)
                  (softmax): Softmax(dim=-1)
                )
                (conv_block): CAB3D(
                  (cab): Sequential(
                    (0): Conv3d(64, 21, kernel_size=(1, 3, 3), stride=(1, 1, 1), padding=(0, 1, 1))
                    (1): GELU()
                    (2): Conv3d(21, 64, kernel_size=(1, 3, 3), stride=(1, 1, 1), padding=(0, 1, 1))
                    (3): ChannelAttention3D(
                      (attention): Sequential(
                        (0): AdaptiveAvgPool3d(output_size=(1, 1, 1))
                        (1): Conv3d(64, 2, kernel_size=(1, 1, 1), stride=(1, 1, 1))
                        (2): ReLU(inplace=True)
                        (3): Conv3d(2, 64, kernel_size=(1, 1, 1), stride=(1, 1, 1))
                        (4): Sigmoid()
                      )
                    )
                  )
                )
                (drop_path): DropPath()
                (norm2): LayerNorm((64,), eps=1e-05, elementwise_affine=True)
                (mlp): Mlp(
                  (fc1): Linear(in_features=64, out_features=128, bias=True)
                  (act): GELU()
                  (fc2): Linear(in_features=128, out_features=64, bias=True)
                  (drop): Dropout(p=0.0, inplace=False)
                )
              )
            )
            (overlap_attn): OCAB(
              (norm1): LayerNorm((64,), eps=1e-05, elementwise_affine=True)
              (qkv): Linear(in_features=64, out_features=192, bias=True)
              (kv_partition): Overlapping_window_partition()
              (softmax): Softmax(dim=-1)
              (attn_drop): Dropout(p=0.0, inplace=False)
              (proj): Linear(in_features=64, out_features=64, bias=True)
              (proj_drop): Dropout(p=0.0, inplace=False)
              (drop_path): Identity()
              (norm2): LayerNorm((64,), eps=1e-05, elementwise_affine=True)
              (mlp): Mlp(
                (fc1): Linear(in_features=64, out_features=128, bias=True)
                (act): GELU()
                (fc2): Linear(in_features=128, out_features=64, bias=True)
                (drop): Dropout(p=0.0, inplace=False)
              )
            )
          )
          (conv): Conv2d(64, 64, kernel_size=(3, 3), stride=(1, 1), padding=(1, 1))
          (patch_embed): PatchEmbed()
          (patch_unembed): PatchUnEmbed()
        )
      )
      (norm): LayerNorm((64,), eps=1e-05, elementwise_affine=True)
      (conv_after_body): Conv2d(64, 64, kernel_size=(3, 3), stride=(1, 1), padding=(1, 1))
      (lrelu): LeakyReLU(negative_slope=0.1, inplace=True)
      (conv_before_upsample): Conv2d(64, 64, kernel_size=(3, 3), stride=(1, 1), padding=(1, 1))
    )
    (forward_2): MFHAT(
      (conv_first): Conv2d(3, 64, kernel_size=(3, 3), stride=(1, 1), padding=(1, 1))
      (conv_first_feat): Conv2d(64, 64, kernel_size=(3, 3), stride=(1, 1), padding=(1, 1))
      (patch_embed): PatchEmbed(
        (norm): LayerNorm((64,), eps=1e-05, elementwise_affine=True)
      )
      (patch_unembed): PatchUnEmbed()
      (pos_drop): Dropout(p=0.0, inplace=False)
      (layers): ModuleList(
        (0): RHAG(
          (residual_group): AttentionBlocks(
            dim=64, input_resolution=(64, 64), depth=4
            (blocks): ModuleList(
              (0): HAB(
                dim=64, input_resolution=(64, 64), num_heads=4, window_size=[3, 8, 8], shift_size=(0, 0, 0), mlp_ratio=2.0
                (norm1): LayerNorm((64,), eps=1e-05, elementwise_affine=True)
                (attn): WindowAttention(
                  dim=64, window_size=[3, 8, 8], num_heads=4
                  (qkv): Linear(in_features=64, out_features=192, bias=True)
                  (attn_drop): Dropout(p=0.0, inplace=False)
                  (proj): Linear(in_features=64, out_features=64, bias=True)
                  (proj_drop): Dropout(p=0.0, inplace=False)
                  (softmax): Softmax(dim=-1)
                )
                (conv_block): CAB3D(
                  (cab): Sequential(
                    (0): Conv3d(64, 21, kernel_size=(1, 3, 3), stride=(1, 1, 1), padding=(0, 1, 1))
                    (1): GELU()
                    (2): Conv3d(21, 64, kernel_size=(1, 3, 3), stride=(1, 1, 1), padding=(0, 1, 1))
                    (3): ChannelAttention3D(
                      (attention): Sequential(
                        (0): AdaptiveAvgPool3d(output_size=(1, 1, 1))
                        (1): Conv3d(64, 2, kernel_size=(1, 1, 1), stride=(1, 1, 1))
                        (2): ReLU(inplace=True)
                        (3): Conv3d(2, 64, kernel_size=(1, 1, 1), stride=(1, 1, 1))
                        (4): Sigmoid()
                      )
                    )
                  )
                )
                (drop_path): Identity()
                (norm2): LayerNorm((64,), eps=1e-05, elementwise_affine=True)
                (mlp): Mlp(
                  (fc1): Linear(in_features=64, out_features=128, bias=True)
                  (act): GELU()
                  (fc2): Linear(in_features=128, out_features=64, bias=True)
                  (drop): Dropout(p=0.0, inplace=False)
                )
              )
              (1): HAB(
                dim=64, input_resolution=(64, 64), num_heads=4, window_size=[3, 8, 8], shift_size=(3, 4, 4), mlp_ratio=2.0
                (norm1): LayerNorm((64,), eps=1e-05, elementwise_affine=True)
                (attn): WindowAttention(
                  dim=64, window_size=[3, 8, 8], num_heads=4
                  (qkv): Linear(in_features=64, out_features=192, bias=True)
                  (attn_drop): Dropout(p=0.0, inplace=False)
                  (proj): Linear(in_features=64, out_features=64, bias=True)
                  (proj_drop): Dropout(p=0.0, inplace=False)
                  (softmax): Softmax(dim=-1)
                )
                (conv_block): CAB3D(
                  (cab): Sequential(
                    (0): Conv3d(64, 21, kernel_size=(1, 3, 3), stride=(1, 1, 1), padding=(0, 1, 1))
                    (1): GELU()
                    (2): Conv3d(21, 64, kernel_size=(1, 3, 3), stride=(1, 1, 1), padding=(0, 1, 1))
                    (3): ChannelAttention3D(
                      (attention): Sequential(
                        (0): AdaptiveAvgPool3d(output_size=(1, 1, 1))
                        (1): Conv3d(64, 2, kernel_size=(1, 1, 1), stride=(1, 1, 1))
                        (2): ReLU(inplace=True)
                        (3): Conv3d(2, 64, kernel_size=(1, 1, 1), stride=(1, 1, 1))
                        (4): Sigmoid()
                      )
                    )
                  )
                )
                (drop_path): DropPath()
                (norm2): LayerNorm((64,), eps=1e-05, elementwise_affine=True)
                (mlp): Mlp(
                  (fc1): Linear(in_features=64, out_features=128, bias=True)
                  (act): GELU()
                  (fc2): Linear(in_features=128, out_features=64, bias=True)
                  (drop): Dropout(p=0.0, inplace=False)
                )
              )
              (2): HAB(
                dim=64, input_resolution=(64, 64), num_heads=4, window_size=[3, 8, 8], shift_size=(0, 0, 0), mlp_ratio=2.0
                (norm1): LayerNorm((64,), eps=1e-05, elementwise_affine=True)
                (attn): WindowAttention(
                  dim=64, window_size=[3, 8, 8], num_heads=4
                  (qkv): Linear(in_features=64, out_features=192, bias=True)
                  (attn_drop): Dropout(p=0.0, inplace=False)
                  (proj): Linear(in_features=64, out_features=64, bias=True)
                  (proj_drop): Dropout(p=0.0, inplace=False)
                  (softmax): Softmax(dim=-1)
                )
                (conv_block): CAB3D(
                  (cab): Sequential(
                    (0): Conv3d(64, 21, kernel_size=(1, 3, 3), stride=(1, 1, 1), padding=(0, 1, 1))
                    (1): GELU()
                    (2): Conv3d(21, 64, kernel_size=(1, 3, 3), stride=(1, 1, 1), padding=(0, 1, 1))
                    (3): ChannelAttention3D(
                      (attention): Sequential(
                        (0): AdaptiveAvgPool3d(output_size=(1, 1, 1))
                        (1): Conv3d(64, 2, kernel_size=(1, 1, 1), stride=(1, 1, 1))
                        (2): ReLU(inplace=True)
                        (3): Conv3d(2, 64, kernel_size=(1, 1, 1), stride=(1, 1, 1))
                        (4): Sigmoid()
                      )
                    )
                  )
                )
                (drop_path): DropPath()
                (norm2): LayerNorm((64,), eps=1e-05, elementwise_affine=True)
                (mlp): Mlp(
                  (fc1): Linear(in_features=64, out_features=128, bias=True)
                  (act): GELU()
                  (fc2): Linear(in_features=128, out_features=64, bias=True)
                  (drop): Dropout(p=0.0, inplace=False)
                )
              )
              (3): HAB(
                dim=64, input_resolution=(64, 64), num_heads=4, window_size=[3, 8, 8], shift_size=(3, 4, 4), mlp_ratio=2.0
                (norm1): LayerNorm((64,), eps=1e-05, elementwise_affine=True)
                (attn): WindowAttention(
                  dim=64, window_size=[3, 8, 8], num_heads=4
                  (qkv): Linear(in_features=64, out_features=192, bias=True)
                  (attn_drop): Dropout(p=0.0, inplace=False)
                  (proj): Linear(in_features=64, out_features=64, bias=True)
                  (proj_drop): Dropout(p=0.0, inplace=False)
                  (softmax): Softmax(dim=-1)
                )
                (conv_block): CAB3D(
                  (cab): Sequential(
                    (0): Conv3d(64, 21, kernel_size=(1, 3, 3), stride=(1, 1, 1), padding=(0, 1, 1))
                    (1): GELU()
                    (2): Conv3d(21, 64, kernel_size=(1, 3, 3), stride=(1, 1, 1), padding=(0, 1, 1))
                    (3): ChannelAttention3D(
                      (attention): Sequential(
                        (0): AdaptiveAvgPool3d(output_size=(1, 1, 1))
                        (1): Conv3d(64, 2, kernel_size=(1, 1, 1), stride=(1, 1, 1))
                        (2): ReLU(inplace=True)
                        (3): Conv3d(2, 64, kernel_size=(1, 1, 1), stride=(1, 1, 1))
                        (4): Sigmoid()
                      )
                    )
                  )
                )
                (drop_path): DropPath()
                (norm2): LayerNorm((64,), eps=1e-05, elementwise_affine=True)
                (mlp): Mlp(
                  (fc1): Linear(in_features=64, out_features=128, bias=True)
                  (act): GELU()
                  (fc2): Linear(in_features=128, out_features=64, bias=True)
                  (drop): Dropout(p=0.0, inplace=False)
                )
              )
            )
            (overlap_attn): OCAB(
              (norm1): LayerNorm((64,), eps=1e-05, elementwise_affine=True)
              (qkv): Linear(in_features=64, out_features=192, bias=True)
              (kv_partition): Overlapping_window_partition()
              (softmax): Softmax(dim=-1)
              (attn_drop): Dropout(p=0.0, inplace=False)
              (proj): Linear(in_features=64, out_features=64, bias=True)
              (proj_drop): Dropout(p=0.0, inplace=False)
              (drop_path): Identity()
              (norm2): LayerNorm((64,), eps=1e-05, elementwise_affine=True)
              (mlp): Mlp(
                (fc1): Linear(in_features=64, out_features=128, bias=True)
                (act): GELU()
                (fc2): Linear(in_features=128, out_features=64, bias=True)
                (drop): Dropout(p=0.0, inplace=False)
              )
            )
          )
          (conv): Conv2d(64, 64, kernel_size=(3, 3), stride=(1, 1), padding=(1, 1))
          (patch_embed): PatchEmbed()
          (patch_unembed): PatchUnEmbed()
        )
        (1): RHAG(
          (residual_group): AttentionBlocks(
            dim=64, input_resolution=(64, 64), depth=4
            (blocks): ModuleList(
              (0): HAB(
                dim=64, input_resolution=(64, 64), num_heads=4, window_size=[3, 8, 8], shift_size=(0, 0, 0), mlp_ratio=2.0
                (norm1): LayerNorm((64,), eps=1e-05, elementwise_affine=True)
                (attn): WindowAttention(
                  dim=64, window_size=[3, 8, 8], num_heads=4
                  (qkv): Linear(in_features=64, out_features=192, bias=True)
                  (attn_drop): Dropout(p=0.0, inplace=False)
                  (proj): Linear(in_features=64, out_features=64, bias=True)
                  (proj_drop): Dropout(p=0.0, inplace=False)
                  (softmax): Softmax(dim=-1)
                )
                (conv_block): CAB3D(
                  (cab): Sequential(
                    (0): Conv3d(64, 21, kernel_size=(1, 3, 3), stride=(1, 1, 1), padding=(0, 1, 1))
                    (1): GELU()
                    (2): Conv3d(21, 64, kernel_size=(1, 3, 3), stride=(1, 1, 1), padding=(0, 1, 1))
                    (3): ChannelAttention3D(
                      (attention): Sequential(
                        (0): AdaptiveAvgPool3d(output_size=(1, 1, 1))
                        (1): Conv3d(64, 2, kernel_size=(1, 1, 1), stride=(1, 1, 1))
                        (2): ReLU(inplace=True)
                        (3): Conv3d(2, 64, kernel_size=(1, 1, 1), stride=(1, 1, 1))
                        (4): Sigmoid()
                      )
                    )
                  )
                )
                (drop_path): DropPath()
                (norm2): LayerNorm((64,), eps=1e-05, elementwise_affine=True)
                (mlp): Mlp(
                  (fc1): Linear(in_features=64, out_features=128, bias=True)
                  (act): GELU()
                  (fc2): Linear(in_features=128, out_features=64, bias=True)
                  (drop): Dropout(p=0.0, inplace=False)
                )
              )
              (1): HAB(
                dim=64, input_resolution=(64, 64), num_heads=4, window_size=[3, 8, 8], shift_size=(3, 4, 4), mlp_ratio=2.0
                (norm1): LayerNorm((64,), eps=1e-05, elementwise_affine=True)
                (attn): WindowAttention(
                  dim=64, window_size=[3, 8, 8], num_heads=4
                  (qkv): Linear(in_features=64, out_features=192, bias=True)
                  (attn_drop): Dropout(p=0.0, inplace=False)
                  (proj): Linear(in_features=64, out_features=64, bias=True)
                  (proj_drop): Dropout(p=0.0, inplace=False)
                  (softmax): Softmax(dim=-1)
                )
                (conv_block): CAB3D(
                  (cab): Sequential(
                    (0): Conv3d(64, 21, kernel_size=(1, 3, 3), stride=(1, 1, 1), padding=(0, 1, 1))
                    (1): GELU()
                    (2): Conv3d(21, 64, kernel_size=(1, 3, 3), stride=(1, 1, 1), padding=(0, 1, 1))
                    (3): ChannelAttention3D(
                      (attention): Sequential(
                        (0): AdaptiveAvgPool3d(output_size=(1, 1, 1))
                        (1): Conv3d(64, 2, kernel_size=(1, 1, 1), stride=(1, 1, 1))
                        (2): ReLU(inplace=True)
                        (3): Conv3d(2, 64, kernel_size=(1, 1, 1), stride=(1, 1, 1))
                        (4): Sigmoid()
                      )
                    )
                  )
                )
                (drop_path): DropPath()
                (norm2): LayerNorm((64,), eps=1e-05, elementwise_affine=True)
                (mlp): Mlp(
                  (fc1): Linear(in_features=64, out_features=128, bias=True)
                  (act): GELU()
                  (fc2): Linear(in_features=128, out_features=64, bias=True)
                  (drop): Dropout(p=0.0, inplace=False)
                )
              )
              (2): HAB(
                dim=64, input_resolution=(64, 64), num_heads=4, window_size=[3, 8, 8], shift_size=(0, 0, 0), mlp_ratio=2.0
                (norm1): LayerNorm((64,), eps=1e-05, elementwise_affine=True)
                (attn): WindowAttention(
                  dim=64, window_size=[3, 8, 8], num_heads=4
                  (qkv): Linear(in_features=64, out_features=192, bias=True)
                  (attn_drop): Dropout(p=0.0, inplace=False)
                  (proj): Linear(in_features=64, out_features=64, bias=True)
                  (proj_drop): Dropout(p=0.0, inplace=False)
                  (softmax): Softmax(dim=-1)
                )
                (conv_block): CAB3D(
                  (cab): Sequential(
                    (0): Conv3d(64, 21, kernel_size=(1, 3, 3), stride=(1, 1, 1), padding=(0, 1, 1))
                    (1): GELU()
                    (2): Conv3d(21, 64, kernel_size=(1, 3, 3), stride=(1, 1, 1), padding=(0, 1, 1))
                    (3): ChannelAttention3D(
                      (attention): Sequential(
                        (0): AdaptiveAvgPool3d(output_size=(1, 1, 1))
                        (1): Conv3d(64, 2, kernel_size=(1, 1, 1), stride=(1, 1, 1))
                        (2): ReLU(inplace=True)
                        (3): Conv3d(2, 64, kernel_size=(1, 1, 1), stride=(1, 1, 1))
                        (4): Sigmoid()
                      )
                    )
                  )
                )
                (drop_path): DropPath()
                (norm2): LayerNorm((64,), eps=1e-05, elementwise_affine=True)
                (mlp): Mlp(
                  (fc1): Linear(in_features=64, out_features=128, bias=True)
                  (act): GELU()
                  (fc2): Linear(in_features=128, out_features=64, bias=True)
                  (drop): Dropout(p=0.0, inplace=False)
                )
              )
              (3): HAB(
                dim=64, input_resolution=(64, 64), num_heads=4, window_size=[3, 8, 8], shift_size=(3, 4, 4), mlp_ratio=2.0
                (norm1): LayerNorm((64,), eps=1e-05, elementwise_affine=True)
                (attn): WindowAttention(
                  dim=64, window_size=[3, 8, 8], num_heads=4
                  (qkv): Linear(in_features=64, out_features=192, bias=True)
                  (attn_drop): Dropout(p=0.0, inplace=False)
                  (proj): Linear(in_features=64, out_features=64, bias=True)
                  (proj_drop): Dropout(p=0.0, inplace=False)
                  (softmax): Softmax(dim=-1)
                )
                (conv_block): CAB3D(
                  (cab): Sequential(
                    (0): Conv3d(64, 21, kernel_size=(1, 3, 3), stride=(1, 1, 1), padding=(0, 1, 1))
                    (1): GELU()
                    (2): Conv3d(21, 64, kernel_size=(1, 3, 3), stride=(1, 1, 1), padding=(0, 1, 1))
                    (3): ChannelAttention3D(
                      (attention): Sequential(
                        (0): AdaptiveAvgPool3d(output_size=(1, 1, 1))
                        (1): Conv3d(64, 2, kernel_size=(1, 1, 1), stride=(1, 1, 1))
                        (2): ReLU(inplace=True)
                        (3): Conv3d(2, 64, kernel_size=(1, 1, 1), stride=(1, 1, 1))
                        (4): Sigmoid()
                      )
                    )
                  )
                )
                (drop_path): DropPath()
                (norm2): LayerNorm((64,), eps=1e-05, elementwise_affine=True)
                (mlp): Mlp(
                  (fc1): Linear(in_features=64, out_features=128, bias=True)
                  (act): GELU()
                  (fc2): Linear(in_features=128, out_features=64, bias=True)
                  (drop): Dropout(p=0.0, inplace=False)
                )
              )
            )
            (overlap_attn): OCAB(
              (norm1): LayerNorm((64,), eps=1e-05, elementwise_affine=True)
              (qkv): Linear(in_features=64, out_features=192, bias=True)
              (kv_partition): Overlapping_window_partition()
              (softmax): Softmax(dim=-1)
              (attn_drop): Dropout(p=0.0, inplace=False)
              (proj): Linear(in_features=64, out_features=64, bias=True)
              (proj_drop): Dropout(p=0.0, inplace=False)
              (drop_path): Identity()
              (norm2): LayerNorm((64,), eps=1e-05, elementwise_affine=True)
              (mlp): Mlp(
                (fc1): Linear(in_features=64, out_features=128, bias=True)
                (act): GELU()
                (fc2): Linear(in_features=128, out_features=64, bias=True)
                (drop): Dropout(p=0.0, inplace=False)
              )
            )
          )
          (conv): Conv2d(64, 64, kernel_size=(3, 3), stride=(1, 1), padding=(1, 1))
          (patch_embed): PatchEmbed()
          (patch_unembed): PatchUnEmbed()
        )
        (2): RHAG(
          (residual_group): AttentionBlocks(
            dim=64, input_resolution=(64, 64), depth=4
            (blocks): ModuleList(
              (0): HAB(
                dim=64, input_resolution=(64, 64), num_heads=4, window_size=[3, 8, 8], shift_size=(0, 0, 0), mlp_ratio=2.0
                (norm1): LayerNorm((64,), eps=1e-05, elementwise_affine=True)
                (attn): WindowAttention(
                  dim=64, window_size=[3, 8, 8], num_heads=4
                  (qkv): Linear(in_features=64, out_features=192, bias=True)
                  (attn_drop): Dropout(p=0.0, inplace=False)
                  (proj): Linear(in_features=64, out_features=64, bias=True)
                  (proj_drop): Dropout(p=0.0, inplace=False)
                  (softmax): Softmax(dim=-1)
                )
                (conv_block): CAB3D(
                  (cab): Sequential(
                    (0): Conv3d(64, 21, kernel_size=(1, 3, 3), stride=(1, 1, 1), padding=(0, 1, 1))
                    (1): GELU()
                    (2): Conv3d(21, 64, kernel_size=(1, 3, 3), stride=(1, 1, 1), padding=(0, 1, 1))
                    (3): ChannelAttention3D(
                      (attention): Sequential(
                        (0): AdaptiveAvgPool3d(output_size=(1, 1, 1))
                        (1): Conv3d(64, 2, kernel_size=(1, 1, 1), stride=(1, 1, 1))
                        (2): ReLU(inplace=True)
                        (3): Conv3d(2, 64, kernel_size=(1, 1, 1), stride=(1, 1, 1))
                        (4): Sigmoid()
                      )
                    )
                  )
                )
                (drop_path): DropPath()
                (norm2): LayerNorm((64,), eps=1e-05, elementwise_affine=True)
                (mlp): Mlp(
                  (fc1): Linear(in_features=64, out_features=128, bias=True)
                  (act): GELU()
                  (fc2): Linear(in_features=128, out_features=64, bias=True)
                  (drop): Dropout(p=0.0, inplace=False)
                )
              )
              (1): HAB(
                dim=64, input_resolution=(64, 64), num_heads=4, window_size=[3, 8, 8], shift_size=(3, 4, 4), mlp_ratio=2.0
                (norm1): LayerNorm((64,), eps=1e-05, elementwise_affine=True)
                (attn): WindowAttention(
                  dim=64, window_size=[3, 8, 8], num_heads=4
                  (qkv): Linear(in_features=64, out_features=192, bias=True)
                  (attn_drop): Dropout(p=0.0, inplace=False)
                  (proj): Linear(in_features=64, out_features=64, bias=True)
                  (proj_drop): Dropout(p=0.0, inplace=False)
                  (softmax): Softmax(dim=-1)
                )
                (conv_block): CAB3D(
                  (cab): Sequential(
                    (0): Conv3d(64, 21, kernel_size=(1, 3, 3), stride=(1, 1, 1), padding=(0, 1, 1))
                    (1): GELU()
                    (2): Conv3d(21, 64, kernel_size=(1, 3, 3), stride=(1, 1, 1), padding=(0, 1, 1))
                    (3): ChannelAttention3D(
                      (attention): Sequential(
                        (0): AdaptiveAvgPool3d(output_size=(1, 1, 1))
                        (1): Conv3d(64, 2, kernel_size=(1, 1, 1), stride=(1, 1, 1))
                        (2): ReLU(inplace=True)
                        (3): Conv3d(2, 64, kernel_size=(1, 1, 1), stride=(1, 1, 1))
                        (4): Sigmoid()
                      )
                    )
                  )
                )
                (drop_path): DropPath()
                (norm2): LayerNorm((64,), eps=1e-05, elementwise_affine=True)
                (mlp): Mlp(
                  (fc1): Linear(in_features=64, out_features=128, bias=True)
                  (act): GELU()
                  (fc2): Linear(in_features=128, out_features=64, bias=True)
                  (drop): Dropout(p=0.0, inplace=False)
                )
              )
              (2): HAB(
                dim=64, input_resolution=(64, 64), num_heads=4, window_size=[3, 8, 8], shift_size=(0, 0, 0), mlp_ratio=2.0
                (norm1): LayerNorm((64,), eps=1e-05, elementwise_affine=True)
                (attn): WindowAttention(
                  dim=64, window_size=[3, 8, 8], num_heads=4
                  (qkv): Linear(in_features=64, out_features=192, bias=True)
                  (attn_drop): Dropout(p=0.0, inplace=False)
                  (proj): Linear(in_features=64, out_features=64, bias=True)
                  (proj_drop): Dropout(p=0.0, inplace=False)
                  (softmax): Softmax(dim=-1)
                )
                (conv_block): CAB3D(
                  (cab): Sequential(
                    (0): Conv3d(64, 21, kernel_size=(1, 3, 3), stride=(1, 1, 1), padding=(0, 1, 1))
                    (1): GELU()
                    (2): Conv3d(21, 64, kernel_size=(1, 3, 3), stride=(1, 1, 1), padding=(0, 1, 1))
                    (3): ChannelAttention3D(
                      (attention): Sequential(
                        (0): AdaptiveAvgPool3d(output_size=(1, 1, 1))
                        (1): Conv3d(64, 2, kernel_size=(1, 1, 1), stride=(1, 1, 1))
                        (2): ReLU(inplace=True)
                        (3): Conv3d(2, 64, kernel_size=(1, 1, 1), stride=(1, 1, 1))
                        (4): Sigmoid()
                      )
                    )
                  )
                )
                (drop_path): DropPath()
                (norm2): LayerNorm((64,), eps=1e-05, elementwise_affine=True)
                (mlp): Mlp(
                  (fc1): Linear(in_features=64, out_features=128, bias=True)
                  (act): GELU()
                  (fc2): Linear(in_features=128, out_features=64, bias=True)
                  (drop): Dropout(p=0.0, inplace=False)
                )
              )
              (3): HAB(
                dim=64, input_resolution=(64, 64), num_heads=4, window_size=[3, 8, 8], shift_size=(3, 4, 4), mlp_ratio=2.0
                (norm1): LayerNorm((64,), eps=1e-05, elementwise_affine=True)
                (attn): WindowAttention(
                  dim=64, window_size=[3, 8, 8], num_heads=4
                  (qkv): Linear(in_features=64, out_features=192, bias=True)
                  (attn_drop): Dropout(p=0.0, inplace=False)
                  (proj): Linear(in_features=64, out_features=64, bias=True)
                  (proj_drop): Dropout(p=0.0, inplace=False)
                  (softmax): Softmax(dim=-1)
                )
                (conv_block): CAB3D(
                  (cab): Sequential(
                    (0): Conv3d(64, 21, kernel_size=(1, 3, 3), stride=(1, 1, 1), padding=(0, 1, 1))
                    (1): GELU()
                    (2): Conv3d(21, 64, kernel_size=(1, 3, 3), stride=(1, 1, 1), padding=(0, 1, 1))
                    (3): ChannelAttention3D(
                      (attention): Sequential(
                        (0): AdaptiveAvgPool3d(output_size=(1, 1, 1))
                        (1): Conv3d(64, 2, kernel_size=(1, 1, 1), stride=(1, 1, 1))
                        (2): ReLU(inplace=True)
                        (3): Conv3d(2, 64, kernel_size=(1, 1, 1), stride=(1, 1, 1))
                        (4): Sigmoid()
                      )
                    )
                  )
                )
                (drop_path): DropPath()
                (norm2): LayerNorm((64,), eps=1e-05, elementwise_affine=True)
                (mlp): Mlp(
                  (fc1): Linear(in_features=64, out_features=128, bias=True)
                  (act): GELU()
                  (fc2): Linear(in_features=128, out_features=64, bias=True)
                  (drop): Dropout(p=0.0, inplace=False)
                )
              )
            )
            (overlap_attn): OCAB(
              (norm1): LayerNorm((64,), eps=1e-05, elementwise_affine=True)
              (qkv): Linear(in_features=64, out_features=192, bias=True)
              (kv_partition): Overlapping_window_partition()
              (softmax): Softmax(dim=-1)
              (attn_drop): Dropout(p=0.0, inplace=False)
              (proj): Linear(in_features=64, out_features=64, bias=True)
              (proj_drop): Dropout(p=0.0, inplace=False)
              (drop_path): Identity()
              (norm2): LayerNorm((64,), eps=1e-05, elementwise_affine=True)
              (mlp): Mlp(
                (fc1): Linear(in_features=64, out_features=128, bias=True)
                (act): GELU()
                (fc2): Linear(in_features=128, out_features=64, bias=True)
                (drop): Dropout(p=0.0, inplace=False)
              )
            )
          )
          (conv): Conv2d(64, 64, kernel_size=(3, 3), stride=(1, 1), padding=(1, 1))
          (patch_embed): PatchEmbed()
          (patch_unembed): PatchUnEmbed()
        )
      )
      (norm): LayerNorm((64,), eps=1e-05, elementwise_affine=True)
      (conv_after_body): Conv2d(64, 64, kernel_size=(3, 3), stride=(1, 1), padding=(1, 1))
      (lrelu): LeakyReLU(negative_slope=0.1, inplace=True)
      (conv_before_upsample): Conv2d(64, 64, kernel_size=(3, 3), stride=(1, 1), padding=(1, 1))
    )
  )
  (upconv1): Conv2d(64, 256, kernel_size=(3, 3), stride=(1, 1), padding=(1, 1))
  (upconv2): Conv2d(64, 256, kernel_size=(3, 3), stride=(1, 1), padding=(1, 1))
  (pixel_shuffle): PixelShuffle(upscale_factor=2)
  (conv_hr): Conv2d(64, 64, kernel_size=(3, 3), stride=(1, 1), padding=(1, 1))
  (conv_last): Conv2d(64, 3, kernel_size=(3, 3), stride=(1, 1), padding=(1, 1))
  (img_upsample): Upsample(scale_factor=4.0, mode=bilinear)
  (lrelu): LeakyReLU(negative_slope=0.1, inplace=True)
)
2024-04-21 16:11:07,153 INFO: Loading BasicRecurrentHAT model from experiments/HAT_PSRTRecurrent_mix_precision_Vimeo_300K_HAT_small_batch_2_2/models/net_g_45000.pth, with param key: [params].
2024-04-21 16:11:07,285 INFO: Use Exponential Moving Average with decay: 0.999
…
